generated_model/model_CNN.tflite (tflite, 17960 bytes, 10 tensors)

sequential_3/dense_7/BiasAdd/ReadVariableOp f4 [4]
000000 89 d7 19 3d 49 b7 e9 3d c0 34 89 3d c9 cb 2a be
       0.037559066 0.11411912 0.066995144 -0.166793

sequential_3/dense_6/BiasAdd/ReadVariableOp f4 [16]
000000 f0 3b 19 be 72 1b 95 3e 64 88 77 3e 46 aa 71 3e
       -0.1496427 0.29122502 0.24173123 0.2360011
000010 1d 0d 66 3e 31 fe 60 3c a4 dc 09 3f 14 2c 15 be
       0.2246594 0.013732479 0.53852296 -0.14567596
000020 a6 82 bf 3e 8a 07 a3 3d 19 b6 bc 3d 1b a7 ec 3d
       0.37404364 0.07960422 0.0921442 0.1155531
000030 2a 43 3f bd d6 c0 02 be 6f 0e 66 3e c6 92 80 3e
       -0.046694912 -0.12768874 0.22466443 0.2511198

sequential_3/activation_8/Relu;sequential_3/batch_normalization_8/FusedBatchNormV3;sequential_3/conv2d_8/BiasAdd/ReadVariableOp;sequential_3/conv2d_8/BiasAdd;sequential_3/conv2d_8/Conv2D f4 [8]
000000 3a 45 b1 bf 22 1c 3d be 50 18 ef be b2 db b5 bf
       -1.3849251 -0.18467763 -0.46698236 -1.4207671
000010 55 bf 88 bd 08 ea 30 bf ad 83 68 bf f3 28 98 bf
       -0.06677119 -0.69107103 -0.9082592 -1.1887497

sequential_3/activation_9/Relu;sequential_3/batch_normalization_9/FusedBatchNormV3;sequential_3/conv2d_9/BiasAdd/ReadVariableOp;sequential_3/conv2d_9/BiasAdd;sequential_3/conv2d_9/Conv2D f4 [16]
000000 7e a1 2e 3f 26 66 5e 3f aa fb 6e be 74 fd bd be
       0.6821517 0.86874616 -0.2333819 -0.37107432
000010 a0 9e 00 be b1 c7 e9 bc 0c cf 88 bf a1 bc 1f be
       -0.1256051 -0.028537603 -1.0688186 -0.155993
000020 81 fb 21 3f d8 5e 29 3f 1b 68 66 3f af 71 65 be
       0.6327439 0.66160345 0.900026 -0.22406648
000030 48 69 bf be 7e de c4 bf 48 29 7b bf 48 57 12 3f
       -0.3738501 -1.5380399 -0.98109865 0.5716443

sequential_3/activation_10/Relu;sequential_3/batch_normalization_10/FusedBatchNormV3;sequential_3/conv2d_10/BiasAdd/ReadVariableOp;sequential_3/conv2d_10/BiasAdd;sequential_3/conv2d_10/Conv2D f4 [32]
000000 d8 b7 72 bf 32 72 a9 bf 30 5f 92 3e 50 cf 5c be
       -0.94811773 -1.3237975 0.28588247 -0.21563458
000010 0a 29 20 bf 86 ba 58 bf 51 59 8b bf a7 f1 e3 bf
       -0.6256262 -0.8465961 -1.0886632 -1.7808121
000020 ff 46 58 bf a5 c1 85 bf d6 1f 99 bf c0 9d 2e 3e
       -0.8448333 -1.0449721 -1.196284 0.17052364
000030 1b fa bb 3e f0 33 10 3f e6 7a c0 be 5f 0a 9f bf
       0.36714253 0.5632925 -0.37593764 -1.242504
000040 20 9b 95 bf 74 8b 19 be 42 90 78 bf 39 48 43 bf
       -1.1687965 -0.14994603 -0.9709512 -0.7628208
000050 38 a2 d9 be 32 3e 87 bd 60 53 a1 bf 00 bb 09 bf
       -0.42506576 -0.0660366 -1.2603569 -0.53800964
000060 1c 95 cf be 9a 42 23 3e 9b eb 86 bf d3 21 3e bf
       -0.4054345 0.15943375 -1.0540651 -0.7427036
000070 14 1b 88 3c a2 c6 61 bf 21 e7 8b bf 2c 88 97 bf
       0.016614474 -0.88193715 -1.092991 -1.1838431

sequential_3/dense_6/MatMul f4 [16, 32]
000000 26 71 78 bd c2 96 a8 be 2c 10 9c be 9f de 03 bd
       -0.06065478 -0.3292752 -0.30481088 -0.03219473
000010 ce 0b 99 be 2f 9d 1f 3e 35 32 db 3c 53 29 d6 be
       -0.2989182 0.15587305 0.026757339 -0.41828403
000020 ae 63 b3 be 9e 6e 92 be c6 3d 76 3e 02 6d c0 be
       -0.35036987 -0.2860002 0.24047002 -0.37583166
000030 87 b0 79 3d e5 19 40 bd 8a e8 6b 3e 71 d3 7f 3c
       0.060959365 -0.046899695 0.23037925 0.015614376
000040 72 a6 30 be 0b 40 90 3e 2c e3 47 be ac 97 2e 3e
       -0.17250994 0.2817386 -0.19520253 0.17050046
000050 3c 91 11 be bb da 85 be 23 4f 74 be 94 70 6b be
       -0.14215559 -0.2614344 -0.23858313 -0.22992164
000060 83 d0 b8 be 85 37 b3 bb 7f f2 80 be 73 c9 a8 be
       -0.36096582 -0.005469265 -0.2518501 -0.32966194
000070 a7 c6 b0 be 76 be 7e 3d 2d 6e c5 bd 39 fa 1b be
       -0.3452656 0.062193356 -0.09640155 -0.15232171
000080 eb 02 96 3d 2a df 9d be 69 26 f7 3e 22 82 ff be
       0.07324775 -0.30834323 0.48271492 -0.4990397
000090 ab 0b 54 bd 8a 37 cb bd b8 b4 25 bf 2d 8c d3 be
       -0.05176894 -0.099227026 -0.6472888 -0.41317883
0000a0 45 ff 29 be 63 97 18 bf 24 1f 77 bf 3f 8b 15 bf
       -0.16601284 -0.59606 -0.9653189 -0.584156
0000b0 63 7e e1 3e a2 c3 9b be 4f 1f 29 bf 40 59 22 bf
       0.44041738 -0.30422693 -0.660634 -0.63417435
0000c0 c7 e7 d5 be 89 42 16 bf 80 f0 1b bf 53 d8 90 be
       -0.41778395 -0.58695275 -0.6091385 -0.28290042
0000d0 32 6b 28 be a6 e5 1e 3f 34 fe a0 bd 46 65 21 3f
       -0.16447142 0.62069166 -0.078609854 0.63045156
0000e0 6a b9 96 be db 1e 8a 3e e5 9e 72 3d 4e 21 a9 be
       -0.29438335 0.26976666 0.059233565 -0.33033222
0000f0 c7 43 6f 3c cc 19 2a 3e 3c e8 48 3e 70 82 8c bf
       0.014603562 0.16611403 0.1961984 -1.0977306
000100 e0 94 ac 3d 62 50 1e 3e 1b 2e 08 3e fc 47 b3 3d
       0.08426833 0.15460351 0.13298838 0.08753964
000110 95 23 5e 3e 4d f0 82 be 62 41 61 be 45 f8 90 3e
       0.21693261 -0.2557396 -0.21997598 0.28314415
000120 e9 fd b2 be 7f f5 9a 3d a8 fb a0 3d 35 72 87 bf
       -0.34959343 0.07566356 0.078604996 -1.0581728
000130 5a 99 40 bf d6 7d 81 bf e6 12 d0 3e dc ef b6 3e
       -0.75233996 -1.0116527 0.40639418 0.35729873
000140 db f0 b2 3e b2 76 8e 3e e5 aa db 3d b4 00 28 bf
       0.34949383 0.27824932 0.10725955 -0.6562607
000150 39 17 97 3e 21 f7 00 bf 44 fc 2e 3e 28 a3 98 3b
       0.29509905 -0.5037709 0.17088419 0.0046581216
000160 f3 1c 39 bf 4c da 8b bf fe 84 f3 3d 45 99 f0 3d
       -0.723098 -1.0925994 0.118906006 0.11747984
000170 eb 22 54 be 11 8a f1 bc 45 91 e4 3e 0f a7 da bc
       -0.20716445 -0.02948478 0.44642082 -0.026690988
000180 e6 7b 07 bf 4a da 36 bf f4 04 f2 3e e1 d7 3a 3e
       -0.5292343 -0.7142683 0.47269404 0.18246414
000190 18 83 05 3e a8 5e 74 3e 91 c2 2c bf 0d 07 2c 3e
       0.1303829 0.23864233 -0.67484385 0.16799565
0001a0 e7 a0 be 3d 3a f5 da be da 79 85 bf 9c bc 61 3e
       0.093080334 -0.42765218 -1.0427811 0.22044605
0001b0 ed 22 84 3e 5b f8 2d be 94 8c 87 3e bf 1e ba 3d
       0.25807896 -0.16989271 0.2647444 0.090878956
0001c0 b3 4d 14 3e d8 42 d7 be 08 67 57 bf af 0e 97 be
       0.14482765 -0.42043185 -0.8414159 -0.2950339
0001d0 7c 02 3c 3e b0 2a 1d 3f 10 88 34 3e d0 c3 88 3e
       0.18360323 0.6139326 0.17630029 0.26711893
0001e0 23 2e 71 be 3d 50 70 3c 49 a1 3d bf 01 9f 15 bf
       -0.23552756 0.014667568 -0.74074227 -0.58445746
0001f0 9d eb 3a 3d 4a 92 77 bf 67 81 1c 3e 51 d0 88 bf
       0.045634855 -0.96707594 0.15283738 -1.0688573
000200 f5 15 19 3d 76 45 81 bd 2d be d2 3e f6 ce 97 3e
       0.037374455 -0.06312077 0.41160718 0.29650086
000210 67 4c 26 3f 46 f1 34 3e a3 df 57 bf 24 47 c6 3d
       0.6496033 0.17670164 -0.8432562 0.09681538
000220 3e 3e ac 3d 45 be 32 bf fa 48 8e 3d cc 57 60 bf
       0.08410309 -0.6982158 0.06947513 -0.8763397
000230 2f 77 4d be 40 62 66 bf 0d 2e 9a 3e af 1f 0e 3f
       -0.20064996 -0.8999367 0.3011326 0.55517095
000240 ae dd c8 3c 37 44 b1 3e 7b 24 6f 3d fc 0e 3e bf
       0.024519768 0.34622356 0.0583844 -0.74241614
000250 f2 03 a6 3e 33 fe a5 3d 6c 43 06 3e 02 ee 5e 3e
       0.32424885 0.08105125 0.13111657 0.2177048
000260 02 42 1f bf ea a1 ae be 3f b2 c1 3d 6f 45 70 bd
       -0.62210095 -0.34107906 0.09457826 -0.058659967
000270 a5 6a 1d bf a0 32 79 3e 11 04 41 3e 2c f2 17 3e
       -0.6149085 0.24335718 0.18849207 0.14838475
000280 f3 a7 5b 3e 5a 4d c5 3d 1a 4b 78 3e 59 0d 5c 3f
       0.21450786 0.09633894 0.24247399 0.85957867
000290 b1 4d 9c 3e 0e e4 2b be b4 23 8b bd d9 b3 ad bc
       0.30528024 -0.16786215 -0.06793919 -0.021203922
0002a0 00 80 ef be 2c 73 73 3c bd fd be 3d ff 2f 5e 3e
       -0.46777344 0.014859002 0.093257405 0.21697997
0002b0 1a ed e9 3d f2 d7 e7 bc ab 6b 30 3f 0f df 39 be
       0.11422177 -0.028301213 0.6891429 -0.18151496
0002c0 34 9f 5a be 13 59 04 bf 21 d5 3d be 1e fa 54 be
       -0.21349794 -0.51698416 -0.18538333 -0.20798537
0002d0 88 62 26 3f d9 e9 6c be ab 1d 9a 3b a8 d1 96 be
       0.64994097 -0.23136081 0.0047032437 -0.2945683
0002e0 48 5b b1 be 99 e8 6a 3e 7c ac 12 3e 82 46 ae 3c
       -0.34639955 0.22940291 0.1432361 0.021273855
0002f0 73 32 73 3e 5a 81 48 3e 62 df c4 be db 83 82 bc
       0.23749714 0.19580594 -0.38451678 -0.015932014
000300 00 ea 7b bd a3 1e d7 3d 02 fc ce be ff e5 28 bf
       -0.061502457 0.1050389 -0.40426642 -0.65975946
000310 83 34 07 bf c2 5e 3d 3f b6 56 b2 3d 10 d1 72 3f
       -0.528145 0.73972714 0.08707945 0.94850254
000320 71 d1 9e 3e 07 1f ed 3d 79 13 bb 3d 07 37 4a be
       0.31019166 0.115781836 0.091345735 -0.19747554
000330 99 b9 cd bd e8 6e a6 39 08 9e b5 be 06 1e 11 3d
       -0.100451656 0.0003174462 -0.3547213 0.035429023
000340 74 2b 15 3f 1b eb e9 3e 41 08 99 3e bb 8c 18 bd
       0.5826943 0.45687184 0.2988911 -0.037243586
000350 bd c2 d2 be 8b 53 82 be c5 a7 35 3f e8 b7 43 3e
       -0.411642 -0.25454363 0.7095912 0.19113123
000360 0c 2c 3a 3e c6 32 7a be 3e 59 a2 bc ac 15 49 3e
       0.18180865 -0.24433431 -0.019817945 0.19637173
000370 38 22 87 bf 9c cf e8 3d 4a d9 ef 3e 17 0c ca 3d
       -1.0557318 0.11367723 0.46845466 0.09865587
000380 ea cf 30 3e 12 79 a2 bd fc 92 f0 bd f1 c0 62 be
       0.17266813 -0.079332486 -0.11746785 -0.22143914
000390 8b 4f 0d 3e 66 4c ef bd 50 42 3e 3e 7b 95 4f be
       0.13799874 -0.11684494 0.18579984 -0.20271866
0003a0 5b 80 65 3d ea 61 0f be 4d 17 91 be 75 a1 86 bd
       0.056030612 -0.14002195 -0.2833809 -0.06573764
0003b0 f7 7c 87 3d a0 27 a5 bc a2 2a 4e 3e 0c 1f 2f be
       0.06615632 -0.020160496 0.2013345 -0.17101687
0003c0 62 01 6e 3e cd 21 4c 3d 6e 32 b6 be 82 e6 43 3e
       0.23242715 0.049836922 -0.3558535 0.191309
0003d0 a7 46 cb be 35 a3 67 bd 28 42 ee be 54 21 5f be
       -0.3970234 -0.05655213 -0.46534848 -0.21790057
0003e0 6b e5 9d be e0 db 46 be 67 ca c9 be 3b dc 7b 3c
       -0.30839095 -0.19419813 -0.39412233 0.015372331
0003f0 0e d4 4e be db dd 11 be 6b 60 70 bd 8c 22 23 be
       -0.2019808 -0.14244787 -0.0586857 -0.15931147

sequential_3/dense_7/MatMul f4 [4, 16]
000000 59 13 b3 3d 84 8b 6e bf 16 25 8e bf 2a 0d 65 bf
       0.08743925 -0.93181634 -1.1105068 -0.8947321
000010 6a df a1 bf b3 6d 58 bf a7 25 eb 3e 12 be d1 3e
       -1.2646306 -0.8454239 0.45927164 0.40965325
000020 81 40 00 bf fc c6 43 3f 84 30 89 bf 47 69 63 3f
       -0.50098425 0.764755 -1.0717931 0.88832515
000030 03 ed 8c bf 26 13 b2 bd 13 98 13 bf a4 c1 ca bf
       -1.100983 -0.086950585 -0.5765392 -1.5840344
000040 69 1e fd be 54 38 31 bf 25 75 3a bf ef 51 0d bf
       -0.49437264 -0.69226575 -0.72835 -0.55203146
000050 99 ea 67 be 7a d2 4d 3f a0 2a ba bf 1b 72 7c 3d
       -0.22648086 0.80399287 -1.4544258 0.061632257
000060 c1 be e1 be 62 d3 81 bf 32 6e 76 bf 86 cf 16 bf
       -0.44090846 -1.0142634 -0.96261895 -0.58910406
000070 a4 ef 4d bf e8 d1 33 3f c4 3d 6b bf 08 f6 36 3f
       -0.8044379 0.70242167 -0.9189112 0.71469164
000080 60 90 9b be 1c 47 72 bf 73 54 7f 3f 32 f7 70 bf
       -0.30383587 -0.94639754 0.99738234 -0.9412719
000090 0c cc 64 3f 11 8b 52 3e 1f d0 b4 3e d7 49 b8 be
       0.8937385 0.20560862 0.35315034 -0.35993835
0000a0 d1 a2 84 bf 9a 06 1d be 54 51 82 bf 67 77 a0 bf
       -1.0362188 -0.1533455 -1.0181069 -1.2536439
0000b0 36 68 11 bf b0 ee 96 bf 63 7d 82 bf 88 de 5d bf
       -0.5679964 -1.1791592 -1.0194515 -0.8666768
0000c0 78 f6 4d be 16 9c 88 3f ae 1b 51 bd a8 23 5b 3f
       -0.20113552 1.0672634 -0.051051788 0.8560128
0000d0 74 16 05 bd 5b de 22 bf b1 61 d1 3d 55 0f e3 be
       -0.032492116 -0.6362054 0.10223711 -0.44347635
0000e0 6e 43 b0 3f 83 66 08 bf 61 74 74 3f 4b 4c 8a bd
       1.3770578 -0.5328142 0.9549008 -0.06752833
0000f0 85 8f a7 3f a8 01 e5 3e 94 40 a7 3f 9c 62 28 3e
       1.3090674 0.44727826 1.3066583 0.16443866

sequential_3/conv2d_8/Conv2D f4 [8, 4, 3, 1]
000000 ad 32 17 38 76 d7 31 38 9b 9d 4f b9 f4 51 c9 b9
       3.60484e-05 4.2400752e-05 -0.00019799771 -0.00038398767
000010 55 cb 71 38 ee 9e dc 39 79 29 9b 39 50 2a 36 3a
       5.7648245e-05 0.00042080082 0.00029594803 0.0006949054
000020 67 87 56 3a 81 e6 b8 ba fd 7a 73 38 34 d9 a2 39
       0.00081836287 -0.0014106781 5.8050256e-05 0.00031060877
000030 f0 23 c7 3a e1 de f2 b9 e3 7c 5e 38 40 02 b9 39
       0.0015193205 -0.00046323895 5.3045234e-05 0.00035287626
000040 d5 6f 3a ba 61 20 91 b9 42 ea 2a 3a 52 30 82 3a
       -0.0007112001 -0.0002768068 0.00065198925 0.0009932613
000050 fb da 64 b9 a8 f4 fa b9 7d 59 25 39 05 5a bd b9
       -0.00021825351 -0.00047866 0.00015768963 -0.0003611596
000060 b9 4a 24 3a 08 9a d2 b8 b8 c3 cb 39 be 72 40 3a
       0.0006267238 -0.00010042271 0.00038865 0.00073413167
000070 43 ac c0 b9 89 f0 1e b9 1c 4e 4c 3a 2b 99 d4 b9
       -0.0003674944 -0.0001515766 0.00077936216 -0.0004054991
000080 01 70 6c 38 7e 5a 0f 3a 2d 2a ad b8 65 b5 de 39
       5.6371096e-05 0.00054685015 -8.257139e-05 0.0004247829
000090 aa ee 77 3a 9a f6 a5 38 76 9a 49 ba 85 36 70 ba
       0.0009457866 7.913746e-05 -0.0007690558 -0.00091633975
0000a0 97 6d 83 3a 17 95 c6 39 9e 9b 11 39 12 09 78 ba
       0.0010027167 0.00037876584 0.0001388625 -0.0009461801
0000b0 39 10 35 3a c0 6d 80 39 ff 6e ac 3a ef 91 e7 b8
       0.00069070194 0.00024495833 0.0013155638 -0.000110421206
0000c0 f6 11 83 b9 8d ed 5d ba ea d6 30 ba ca 67 19 39
       -0.0002499965 -0.0008465879 -0.0006745892 0.00014629881
0000d0 5a 6b 55 ba 57 5d 17 b8 b2 62 00 ba 86 d5 26 3a
       -0.0008141302 -3.6088135e-05 -0.0004897519 0.0006364215
0000e0 81 49 c5 39 c0 51 ff 39 d1 7a 64 b9 f0 9a fb 39
       0.00037629533 0.000486983 -0.00021789527 0.00047989888
0000f0 db 3a 2b ba ae 03 fe 39 20 d4 c4 b9 43 28 04 b9
       -0.00065319025 0.00048449397 -0.0003754208 -0.000126035
000100 e3 33 a1 b9 d9 6e f2 39 7d 63 40 ba 91 75 11 3a
       -0.00030746972 0.00046240425 -0.00073390437 0.000554883
000110 aa 71 74 39 5e ed 27 ba 65 80 bb b6 02 49 6a ba
       0.00023311996 -0.0006405915 -5.5879814e-06 -0.00089372706
000120 34 4f 63 39 d2 22 c8 38 6c 1d 1a 3a aa 62 60 39
       0.00021677912 9.543229e-05 0.0005879018 0.0002139906
000130 bc 74 1f 39 a4 9c e5 38 9e 00 ca 39 20 84 b2 b9
       0.00015206909 0.000109487475 0.00038528902 -0.00034049246
000140 03 5f 8f 39 1d d4 ea 37 61 8c 29 ba 19 d2 d8 38
       0.00027345875 2.7993747e-05 -0.00064677565 0.00010338816
000150 44 a1 29 3a 99 dc 84 b9 36 57 62 36 b7 7f eb b8
       0.0006470869 -0.0002534136 3.3727388e-06 -0.00011229462
000160 6b 67 4e 39 d7 09 a2 b9 b2 0d 10 ba 50 6a 30 3a
       0.00019684217 -0.0003090638 -0.0005495205 0.0006729709
000170 60 05 a7 3a 28 3a f8 b9 fe 06 f0 b8 76 ce d0 39
       0.0012742691 -0.00047345576 -0.00011445394 0.00039826677

sequential_3/conv2d_9/Conv2D f4 [16, 4, 1, 8]
000000 00 96 b3 3c f3 dc 86 3e 83 c9 68 3d 53 3d 49 bf
       0.021922112 0.26340446 0.0568328 -0.786092
000010 a8 13 9a 3d ff 23 c5 3e 5c 39 87 be 8b 40 66 be
       0.075232804 0.38504025 -0.2641095 -0.22485559
000020 33 4f ce bc c1 19 a3 bc 39 1b 1d be c8 a4 2f bf
       -0.02518425 -0.019909741 -0.15342416 -0.6861081
000030 d4 88 4d bd bb f8 39 3d c7 7b a2 be 31 01 a2 be
       -0.050179318 0.045403223 -0.3173506 -0.31641534
000040 0f 8a 2b be 4d 6b 09 3d 0a 24 c5 bd bc b0 ee be
       -0.16751884 0.033549596 -0.096260145 -0.46619213
000050 af 3d 68 3e 82 99 35 3e bb a3 a2 be 24 b6 8b be
       0.2267978 0.1773434 -0.3176554 -0.272874
000060 b7 5c 88 be cf 99 c8 bd 12 64 4e 3e 75 35 d8 be
       -0.26633236 -0.09794962 0.20155361 -0.42228284
000070 41 71 28 3e 49 d1 b5 3d c3 59 5c be 54 82 f0 be
       0.16449453 0.088778086 -0.21518616 -0.46974432
000080 f8 98 c1 be b5 f3 53 be da 94 cf 3e da 99 d0 be
       -0.37812018 -0.20698436 0.40543252 -0.4074238
000090 20 c9 f4 be 9e f5 2b 3e 92 1f 63 3e 09 ce 91 be
       -0.47809696 0.16792914 0.22180012 -0.28477505
0000a0 7d bf 07 bf 88 22 97 be 9a 5b 78 3d 71 85 eb be
       -0.5302656 -0.29518533 0.060634233 -0.46000245
0000b0 59 54 15 bf 13 e8 b7 bc 73 63 6f 3d a6 d0 83 be
       -0.5833183 -0.022449529 0.05844445 -0.25745124
0000c0 03 df ea bd d4 9d 4e be a2 fb 4c 3e ae 1c bb be
       -0.11468317 -0.20177394 0.20017865 -0.36545318
0000d0 91 e1 f2 be f2 c0 82 bd 8c a6 ad bd e6 ae d0 bd
       -0.4743772 -0.06384458 -0.08479032 -0.10189609
0000e0 a5 0f 56 be 1f 61 27 bd f1 9f a3 3d 45 e2 89 be
       -0.20904405 -0.040864106 0.07989491 -0.26930442
0000f0 fb 05 a7 be 2d a1 96 bd f8 45 96 be 49 c3 01 be
       -0.3262175 -0.073549606 -0.29350257 -0.12672152
000100 a4 8b 31 3e 45 a5 78 bd cd 83 9a 3e 65 3a 69 3d
       0.17338425 -0.06070449 0.3017868 0.056940455
000110 06 16 3b 3e ee d4 e7 bd 7e bc 0b bb a0 93 4b bd
       0.1827012 -0.1131991 -0.0021322067 -0.049701333
000120 06 53 58 3e de a4 2e 3e 1d 41 6a 3e 8a 2b b5 be
       0.21125421 0.1705508 0.22876401 -0.3538478
000130 67 c4 7c 3d aa 94 01 3e 35 29 c6 bd 3d 4a 5b be
       0.06171074 0.12654367 -0.09675828 -0.21415038
000140 65 78 58 be b1 9e 4c 3d cf 76 92 bc 71 9b 68 be
       -0.21139677 0.049956027 -0.017878918 -0.22715546
000150 04 f7 13 3d 0e 36 b6 bd 10 a4 41 bd bc 03 7a be
       0.036124244 -0.08897029 -0.047275603 -0.24415487
000160 75 c1 45 bd c4 f8 80 3e 2a 1d c1 3e 77 1b 9f be
       -0.048280198 0.25189793 0.37717563 -0.31075642
000170 1c c1 e4 3c 09 cf 52 be aa d1 48 be 8b 6b 76 be
       0.027924113 -0.2058679 -0.1961123 -0.24064462
000180 24 02 0b be fc 3a 35 3d 63 ef db bd 97 e5 99 bc
       -0.13575035 0.044245705 -0.10739019 -0.018786235
000190 b0 c6 ab 3d c7 d9 83 3e 4a 61 50 3e 26 42 2a bd
       0.08387506 0.25752088 0.20349613 -0.04156699
0001a0 c7 a4 40 be d5 82 97 3e 3a 6b 51 3e 45 0b 46 be
       -0.18812858 0.29592004 0.2045106 -0.19340236
0001b0 76 49 60 3e 97 0d e5 3d fe 8a 84 bd ce 19 e7 bd
       0.21903023 0.11184233 -0.06471823 -0.11284219
0001c0 39 0a 8e be 0b 8d 48 3e 1b 11 b2 bc 83 6e e9 be
       -0.27742174 0.19585054 -0.021736672 -0.45592126
0001d0 8c 7d ef 3e 59 be 64 be 03 3a e9 3e eb e4 0c be
       0.46775472 -0.22338237 0.45552072 -0.137592
0001e0 39 5f 3f be fa e9 a1 bd a9 29 24 be 92 1c eb be
       -0.18688668 -0.079059556 -0.16031517 -0.45920235
0001f0 e5 e1 59 3e af 02 74 3e 06 27 1b 3e d7 24 e7 bd
       0.21277578 0.23829149 0.15151605 -0.112863235
000200 4a e8 69 be 83 cc 0f be 79 e6 32 be b3 0d 8d be
       -0.22842517 -0.14042859 -0.17470731 -0.27549514
000210 f6 1f 9f bd 57 27 eb bd bf 0b 99 bd f3 33 41 be
       -0.07769768 -0.11482113 -0.074729435 -0.18867473
000220 94 44 2a bd 40 94 c9 3d 0f 65 7b bd 30 a6 ff be
       -0.041569307 0.098427296 -0.061375674 -0.49931479
000230 70 d0 3c be 3a 97 77 3e e8 72 8f ba 1e c8 76 be
       -0.18438888 0.24178782 -0.0010944279 -0.24099776
000240 f0 37 08 be 00 70 28 be 36 e9 82 bd 81 cc a0 be
       -0.13302588 -0.16448975 -0.06392138 -0.31406024
000250 34 b9 d9 3d e8 c0 1c 3e b1 33 b1 3b 18 9e 49 be
       0.10631028 0.15307963 0.0054077734 -0.19689214
000260 e9 de c5 bd 98 43 0f be c5 ae 3c 3f 63 f8 b1 bd
       -0.09661657 -0.13990629 0.7370418 -0.08689954
000270 45 ea 67 3e 84 12 12 3f 4b f8 94 3e cc b8 b6 3d
       0.2264796 0.570595 0.29095683 0.08921966
000280 5a d3 d2 3d 72 fb 51 3e a0 06 a2 be 04 41 b1 bd
       0.10294218 0.20506075 -0.3164568 -0.08654979
000290 51 3c 89 3b c2 63 5e be f8 72 29 be bf 22 83 3e
       0.0041880985 -0.21717742 -0.16547763 0.25612447
0002a0 36 7e 60 3e 5f f9 58 3e de 44 e2 be 6b a1 0b 3e
       0.21923146 0.21188878 -0.44193166 0.13635795
0002b0 bb 2e 16 3e 9c 6f 0b 3d 2e 9c c7 bc de a5 f7 3e
       0.14666264 0.034041986 -0.024366464 0.48368734
0002c0 18 fa a0 3e af 15 05 3e 58 c2 f1 be 5b 5d 13 3e
       0.31440806 0.12996553 -0.47218585 0.14391081
0002d0 76 50 d1 bd 07 58 96 bc 13 1f 8b bd 03 b2 87 be
       -0.10220425 -0.018352522 -0.06793036 -0.26503
0002e0 07 4e d3 bd 27 91 6c 3c f8 9e c4 be 57 ae d5 3e
       -0.10317617 0.014438904 -0.38402534 0.41734573
0002f0 fc 10 8b bd 60 e2 1f 3d 88 54 84 3e e7 e8 45 3d
       -0.06790349 0.039034247 0.25845742 0.048317816
000300 bf 6a 1b 3f 06 77 5f 3d f1 75 72 be d1 3e 3e 3f
       0.60709757 0.05455687 -0.23677804 0.743146
000310 83 f0 b4 bd d4 8e a7 3e bb 44 16 3d 38 7d f9 3e
       -0.088349365 0.32726157 0.03668664 0.48728347
000320 90 b6 e9 bc 8e 1e 11 3f 90 0d b8 bd d8 3a d6 3e
       -0.028529435 0.5668725 -0.08986962 0.4184177
000330 df ae 8b be 5c 3d e3 3e d9 de 11 3f 32 31 64 be
       -0.27281854 0.4438275 0.56980664 -0.22284392
000340 47 1c e5 bd de e6 66 bb 03 be 8e bd 48 3a 37 be
       -0.11187034 -0.0035232822 -0.069698356 -0.17893326
000350 94 9e 08 be 0b 0a 94 3e 7b 0b a4 3e 80 ca a2 be
       -0.13341743 0.28913912 0.3204001 -0.3179512
000360 2c b7 08 bf f7 6a 37 3e 89 e4 91 3e 20 46 26 bf
       -0.534045 0.17911898 0.2849467 -0.6495075
000370 82 e8 95 bd 49 19 fe 3e 22 ac 29 be 4c 99 00 bf
       -0.07319738 0.49628666 -0.1656957 -0.5023391
000380 96 7b cc 3d 56 bb 11 3e 3f 6d 69 be 8f 6c 2e 3f
       0.0998451 0.14231619 -0.2279558 0.681344
000390 31 ef 11 be dd 6a 81 bd e0 3c 8b 3e 68 ac 0b 3f
       -0.142514 -0.06319211 0.2719488 0.54559946
0003a0 9e 53 c4 3d 3e 89 8c bb 56 9e 7b be 8f 56 82 3d
       0.09586261 -0.0042888215 -0.24572119 0.06364166
0003b0 09 40 8b bd 78 0d 38 3c a7 d3 96 3d 60 56 28 3e
       -0.06799323 0.01123368 0.07364588 0.164392
0003c0 0c c3 55 bb ba f0 ec bd 6a f4 84 be 0d c8 19 3f
       -0.0032617478 -0.115693524 -0.25967723 0.6007088
0003d0 e8 2b e0 bb dd c9 65 3e 63 12 34 3e 9f 5c 31 be
       -0.0068411715 0.22440286 0.17585139 -0.17320488
0003e0 a9 6f 3c bd 17 f0 84 be 3f 7f 91 be 14 a8 8e be
       -0.046004925 -0.25964424 -0.28417394 -0.27862608
0003f0 7f b2 70 bd 4f c4 1a 3d 27 43 72 3d 4e 5d 49 3e
       -0.058763977 0.03778487 0.059146073 0.19664499

sequential_3/conv2d_10/Conv2D f4 [32, 4, 1, 16]
000000 32 83 ed 3c d5 b8 3a bc 5d 01 21 be 46 5d d3 bd
       0.028993223 -0.011396606 -0.15723176 -0.10320525
000010 a6 b4 8d bd 60 bb 8b 3e fc e1 1b 3e 58 72 cb 3d
       -0.069192216 0.27291393 0.15222925 0.09933919
000020 5f 0f 20 bb 88 f8 4e 3e 51 63 f0 3e c2 94 da bc
       -0.0024423224 0.20211995 0.46950772 -0.026682261
000030 d1 61 84 3d f2 94 d2 3d 7a a8 20 3e 03 6a 10 bd
       0.064639695 0.10282315 0.15689269 -0.03525735
000040 4f 5a f1 3c 11 38 86 be ae 38 7e be 8b 56 42 3e
       0.029462008 -0.2621465 -0.24826309 0.18978326
000050 07 9c 41 bb 27 c6 66 3d 6f a2 54 3e ce 4a 6a 3e
       -0.0029542462 0.056341317 0.20765088 0.22880098
000060 37 59 43 be 62 71 b1 3d 3f 12 27 3e 90 fb 05 3e
       -0.19077002 0.08664204 0.16315554 0.13084245
000070 dd 86 8f 3e ca 58 c4 be 66 b7 3e 3d bb 10 8c 3d
       0.2803258 -0.3834899 0.04656162 0.068391286
000080 88 e4 86 3d 02 1e 88 be 8e 0d 95 be 71 5d 21 3e
       0.065865576 -0.26585394 -0.29111904 0.15758301
000090 f1 fd d5 3d 50 8e fe 3d 43 2d 20 3b ce a6 f6 3d
       0.10448826 0.12429488 0.002444104 0.12043534
0000a0 20 c2 3a be 05 8d 2f be 33 ad 1f 3d a7 e9 9c 3d
       -0.18238115 -0.17143638 0.038983535 0.07661753
0000b0 0a 64 68 3e 8b 14 32 be ca d3 7e bc ff b9 05 3e
       0.22694412 -0.17390649 -0.015553424 0.13059233
0000c0 81 35 14 bd de 2b fa bd 71 3e 88 be 6e fd 0b 3d
       -0.036183838 -0.12215398 -0.2661014 0.034177236
0000d0 49 de 15 3e 58 91 e2 3c 2d ce d5 bc cf 29 61 3e
       0.14635576 0.027657196 -0.026099289 0.21988605
0000e0 5b ac b7 bd 95 e1 5e be ec 23 bb bd eb 02 04 3d
       -0.08968421 -0.2176574 -0.09137711 0.032229345
0000f0 f9 06 02 3e 8f f6 82 bd f3 61 23 3e 47 5a c3 3c
       0.12697972 -0.063946836 0.15955333 0.023846759
000100 04 97 27 3d b8 df 12 3e 54 97 32 be 3c 1c 23 3e
       0.040915504 0.14343154 -0.1744054 0.1592874
000110 dd bb 32 3e e7 41 16 be 4b 8e 43 3d 6d 7d f6 3c
       0.17454477 -0.14673577 0.047743123 0.030089105
000120 3d 24 31 be 0c 0a 8b 3c 6d a5 14 be 4f 27 bc 3e
       -0.1729898 0.016972564 -0.1451623 0.3674874
000130 34 6c a3 3e c1 68 12 bd c7 b1 86 3d ef 47 58 3d
       0.3191849 -0.035744432 0.06576877 0.052802976
000140 16 c4 47 bc 7e 0e 0c 3d fd e5 1d be 7b 35 81 bd
       -0.012192747 0.03419351 -0.15419765 -0.06309029
000150 46 22 d1 3c 11 5c 81 3d a9 39 14 be f8 ff d2 3d
       0.025529038 0.063163884 -0.1447512 0.103027284
000160 ab d8 d9 3d 69 56 23 3d f5 35 38 3e 59 49 9c bc
       0.10637029 0.03987733 0.17989333 -0.019077944
000170 02 9e 2a 3d df 12 91 3d 99 8c 91 3e 0e a9 4b 3e
       0.041654594 0.070836775 0.2842758 0.19888708
000180 76 4b 84 3d f4 e9 c0 bd 6b 5f 20 be 7c 4f 89 bc
       0.064597055 -0.09419623 -0.15661399 -0.016761534
000190 0f bf 71 3d 54 83 15 3e 7b 27 68 3d aa 7f 09 3e
       0.0590201 0.14600879 0.056678277 0.13427606
0001a0 61 52 61 3e 70 1e 2a 3d 9a 65 80 3e a4 c9 17 be
       0.22004081 0.041532934 0.25077516 -0.14823014
0001b0 3c 83 0e bd 68 14 28 3e 02 74 1c 3e fd b5 5c 3e
       -0.034793124 0.16414034 0.15278628 0.21553798
0001c0 84 94 54 bd 4a 38 67 be 8b ad bc bd 89 99 71 3d
       -0.051899448 -0.22580066 -0.09212788 0.058984313
0001d0 0a d8 d0 3b c5 ef b0 3e cb f0 94 3e 0a 31 a2 3e
       0.00637341 0.3455793 0.2908996 0.3167804
0001e0 84 67 38 3e c0 ab bc 3c e0 4f 73 3e bc 45 43 be
       0.18008238 0.023031116 0.23760939 -0.1906957
0001f0 cd f4 a8 3c 7f 27 32 3d 66 f7 3a 3e a2 e2 85 3e
       0.020624543 0.043494698 0.18258438 0.2614947
000200 7b b1 96 bd 8e b4 6b bb 67 86 92 3d d5 e9 5f 3e
       -0.073580705 -0.0035965773 0.071545415 0.21866544
000210 3d 93 5b be b4 d4 9e 3e 21 c9 3b 3d fa 5a 7c 3e
       -0.21442886 0.31021655 0.04584611 0.2464408
000220 a1 a1 3f 3d 9f 4d 2d bf 23 d0 3d be ed 3d 01 be
       0.046785 -0.67696565 -0.18536429 -0.12621279
000230 be 6e 65 3e 9d 3a a3 be b6 bb e1 bd f7 57 94 be
       0.22405526 -0.31880656 -0.11022131 -0.28973362
000240 8b a0 5f 3d 32 6e 34 bd df 97 40 3e a4 31 46 3e
       0.054596465 -0.044050403 0.18807934 0.19354874
000250 d7 70 19 3d 55 3f 80 be 4d 03 20 be 70 f9 e7 bc
       0.037461128 -0.25048319 -0.15626259 -0.028317183
000260 ad b7 19 be e7 a9 21 bf d8 25 be be 7c de c0 bd
       -0.15011473 -0.63149875 -0.37138247 -0.094174355
000270 58 bb 4b bd b6 13 89 be 9e 54 84 be e5 d8 8f be
       -0.04973921 -0.2677285 -0.25845808 -0.28095165
000280 0e 73 6f 3c fc e3 23 3d f1 c3 ff 3d fd 8c 92 3e
       0.0146148335 0.040012345 0.12488545 0.2862319
000290 73 9f 24 3e a0 55 85 be cf 9e 87 3c 47 9a 34 3d
       0.1607645 -0.2604189 0.016555218 0.044092443
0002a0 a4 25 6a 3d 02 ad a5 be 3b 53 39 be 91 93 93 3e
       0.057164803 -0.32358557 -0.18098156 0.28823522
0002b0 2d f9 75 3e 23 09 1f be b1 a8 47 be 38 da 93 be
       0.24020834 -0.15530829 -0.19497944 -0.28877425
0002c0 b7 ca 2d 3e ce f6 f9 3d e9 ef bb 3d 75 b8 72 3e
       0.16971861 0.122052774 0.091766186 0.23703177
0002d0 53 d3 07 3e 7b b9 18 be 8a f5 5c 3d b2 20 29 be
       0.13264208 -0.14914505 0.0539451 -0.16516379
0002e0 9c a7 d9 bd 2a fb 8f be d6 32 61 3e 20 f6 e0 3d
       -0.10627672 -0.2812131 0.21992049 0.109844446
0002f0 69 c5 af 3c 21 50 36 be 78 69 e5 be 50 b3 a9 be
       0.021456437 -0.17804004 -0.4480703 -0.33144617
000300 d4 f6 6b 3e 1f 7d 64 3e a2 50 0c 3d 0b ed 5b 3e
       0.23043376 0.22313355 0.034256585 0.21477143
000310 40 cd 22 3d 6f 18 ef be 97 49 e2 3d 97 e5 8f be
       0.039746523 -0.4669833 0.110491924 -0.2810485
000320 24 7c 0a 3d 2c 80 9f ba 55 5d 51 be 77 34 0f 3e
       0.033809796 -0.0012168936 -0.2044576 0.13984857
000330 33 c0 2f 3e 7c 04 cc bd f1 11 4b be 91 c9 ce be
       0.17163162 -0.09961793 -0.19831063 -0.40388158
000340 83 50 9b 3e 21 9c 04 3e de 51 5d 3d 75 39 4b 3e
       0.30334863 0.12950183 0.054033153 0.19846137
000350 4f 43 35 bc de 69 99 be 15 13 a2 3d 18 e7 bc be
       -0.011063411 -0.29963583 0.07913796 -0.3689506
000360 ce 87 77 3d 7b 1d 5f 3d 5c 20 3b be 31 61 da 3c
       0.060432248 0.054471474 -0.18274063 0.026657673
000370 f3 5e 13 bd 54 8b a7 bd a6 df a4 be 65 f2 c9 be
       -0.035979223 -0.081808716 -0.3220188 -0.39442745
000380 09 6e 9a 3e 91 44 cd 3d b1 cd 31 3e 69 94 c2 bc
       0.30162075 0.10022844 0.17363621 -0.023752408
000390 99 11 e3 bd cf f9 05 3e 7d 30 0f 3e 5b 73 86 be
       -0.11087341 0.13083576 0.1398334 -0.26259884
0003a0 d4 55 7f 3e e1 67 2e 3e 88 a5 38 3f 02 d3 15 bd
       0.24935085 0.17031814 0.7212758 -0.036578186
0003b0 3a 66 15 be 81 b4 64 bd 75 e7 85 be 7f de b6 3d
       -0.14589778 -0.055836204 -0.2615315 0.089291565
0003c0 c4 b1 80 bc 36 b9 71 bd 62 57 6d 3e 4f 4e 24 3c
       -0.015709765 -0.05901452 0.23177865 0.010028436
0003d0 4b 5e f2 bd 9d 12 3a 3e d7 0e 2f be fd fd 43 be
       -0.11834391 0.18171163 -0.17095505 -0.19139858
0003e0 0b 8d 34 3e 20 b3 4f bd f9 06 52 3d 28 55 c1 bd
       0.17631929 -0.050707936 0.05127618 -0.094400704
0003f0 af 69 ef bd a2 95 97 bd 01 68 a3 bd d2 db 01 3e
       -0.116900794 -0.07401587 -0.079788215 0.12681511
