generated_model/model_CNN-S_quantized.tflite (tflite, 6440 bytes, 4 tensors)

sequential_4/conv2d_11/Conv2D i1 [8, 4, 3, 1]
106 -5 -16 -66 58 28 -104 127
-22 12 -118 117 39 3 12 85
10 12 89 11 -30 127 -10 -46
-51 -127 -19 44 23 31 -15 -86
-49 56 -13 45 68 -72 127 11
-77 37 -15 -42 -11 57 42 21
-27 -25 127 36 2 106 55 -4
-99 25 -8 -125 73 16 -62 127
-95 26 112 -7 22 7 2 56
-52 46 37 13 33 35 17 127
24 12 78 15 -30 -74 2 -84
-39 -28 -58 -73 -9 -15 -127 -14
00000000: 6afb f0be 3a1c 987f ea0c 8a75 2703 0c55
00000010: 0a0c 590b e27f f6d2 cd81 ed2c 171f f1aa
00000020: cf38 f32d 44b8 7f0b b325 f1d6 f539 2a15
00000030: e5e7 7f24 026a 37fc 9d19 f883 4910 c27f
00000040: a11a 70f9 1607 0238 cc2e 250d 2123 117f
00000050: 180c 4e0f e2b6 02ac d9e4 c6b7 f7f1 81f2

sequential_4/conv2d_12/Conv2D i1 [16, 4, 1, 8]
80 -6 80 -83 -52 -23 30 30
8 3 14 -108 -22 -17 -3 9
-19 3 22 -105 8 19 12 27
-57 9 127 -95 19 14 -24 -7
-127 38 35 -99 16 -37 30 -13
-126 -74 2 -117 44 -24 28 -25
-53 -50 34 -111 -8 4 94 -13
-47 -55 30 -37 36 93 124 -37
23 28 12 -21 6 -73 11 22
40 -8 9 57 26 -44 4 -4
-16 -30 -2 27 17 -34 -11 -35
-2 -33 -2 127 -5 6 1 -43
-8 -9 41 127 10 -15 29 -10
121 26 12 -2 20 -24 26 -12
14 -1 70 -19 23 -22 -31 -6
5 17 25 -17 -13 -15 -46 -8
35 52 23 -75 -38 -35 28 26
49 42 34 -41 -29 -29 -18 38
46 31 25 20 12 -12 118 24
25 12 22 96 20 -2 127 -3
121 24 74 7 -18 -12 -4 68
127 13 33 33 -6 24 26 26
10 18 7 17 35 -20 -14 4
-2 -30 3 17 50 5 3 41
4 11 5 -14 4 -27 -56 -12
37 112 10 -59 25 -44 -68 -4
48 13 72 -61 38 -39 -67 1
127 60 59 -42 29 -52 -46 -7
-54 35 45 -37 -43 -39 -101 34
-91 -20 -49 -24 12 -44 -102 -80
2 10 8 -16 -37 -25 -18 -34
-30 6 -55 -2 33 127 -52 -62
00000000: 50fa 50ad cce9 1e1e 0803 0e94 eaef fd09
00000010: ed03 1697 0813 0c1b c709 7fa1 130e e8f9
00000020: 8126 239d 10db 1ef3 82b6 028b 2ce8 1ce7
00000030: cbce 2291 f804 5ef3 d1c9 1edb 245d 7cdb
00000040: 171c 0ceb 06b7 0b16 28f8 0939 1ad4 04fc
00000050: f0e2 fe1b 11de f5dd fedf fe7f fb06 01d5
00000060: f8f7 297f 0af1 1df6 791a 0cfe 14e8 1af4
00000070: 0eff 46ed 17ea e1fa 0511 19ef f3f1 d2f8
00000080: 2334 17b5 dadd 1c1a 312a 22d7 e3e3 ee26
00000090: 2e1f 1914 0cf4 7618 190c 1660 14fe 7ffd
000000a0: 7918 4a07 eef4 fc44 7f0d 2121 fa18 1a1a
000000b0: 0a12 0711 23ec f204 fee2 0311 3205 0329
000000c0: 040b 05f2 04e5 c8f4 2570 0ac5 19d4 bcfc
000000d0: 300d 48c3 26d9 bd01 7f3c 3bd6 1dcc d2f9
000000e0: ca23 2ddb d5d9 9b22 a5ec cfe8 0cd4 9ab0
000000f0: 020a 08f0 dbe7 eede e206 c9fe 217f ccc2

sequential_4/dense_8/MatMul i1 [16, 16] scale=0.018492362 zero_point=0
-0.36984724 -0.20341597 -1.1465265 -0.42532432 -0.42532432 0.6287403 0.38833958 -0.073969446
0.12944654 -1.4978813 0.055477083 0.09246181 -0.073969446 0.46230903 0.64723265 0.6287403
0.055477083 0.0 -1.0540646 0.22190833 0.12944654 0.8136639 0.29587778 0.036984723
0.0 -1.2574806 -0.12944654 -0.2773854 -0.2404007 0.8136639 0.31437016 0.110954165
-0.073969446 -0.94311047 0.14793889 -0.6102479 -0.38833958 0.18492362 0.40683195 -0.70270973
0.25889307 0.29587778 0.7212021 -1.0170798 -0.2773854 0.7212021 0.44381666 -0.110954165
0.77667916 -0.46230903 0.20341597 0.14793889 -0.59175557 -0.5732632 1.0170798 -0.09246181
-0.110954165 0.4808014 -0.5362785 -0.073969446 1.128034 0.073969446 0.20341597 -0.869141
-0.51778615 -0.35135487 0.49929377 -1.0910493 0.25889307 -2.3485298 -1.9047133 -0.12944654
0.110954165 0.42532432 -0.2773854 -0.44381666 0.036984723 -0.77667916 0.94311047 0.7212021
-0.12944654 -1.0355723 0.35135487 -0.83215624 0.46230903 -0.4808014 0.31437016 -0.64723265
-0.2773854 0.35135487 0.6287403 -0.6842174 -0.073969446 0.12944654 0.20341597 0.4808014
-0.42532432 -0.12944654 0.110954165 -0.31437016 -0.35135487 -0.110954165 -0.09246181 -0.2404007
-0.16643125 -0.09246181 -0.36984724 -0.35135487 0.2404007 0.055477083 -0.35135487 -0.25889307
-0.665725 0.77667916 0.2404007 -0.3328625 0.6102479 -0.110954165 -1.1650188 0.5362785
0.5732632 -0.036984723 0.018492362 0.31437016 -1.0910493 -0.51778615 -0.16643125 0.94311047
0.036984723 -0.018492362 0.46230903 -1.2020035 -1.8677285 -0.40683195 -0.14793889 0.44381666
0.6287403 -0.3328625 0.20341597 -0.9616028 0.055477083 -0.35135487 0.35135487 0.665725
0.018492362 -0.665725 0.46230903 0.036984723 -0.09246181 -0.2404007 0.5362785 -0.9616028
0.16643125 0.18492362 0.6102479 -0.6102479 0.09246181 0.25889307 0.055477083 -0.42532432
0.25889307 0.055477083 0.6102479 -1.5163736 -1.5533583 -1.072557 -0.7396945 0.29587778
0.4808014 0.12944654 -0.036984723 -0.51778615 0.16643125 -0.29587778 0.46230903 0.44381666
-0.665725 0.2773854 -0.2404007 0.2773854 -0.3328625 0.25889307 -0.110954165 -0.35135487
0.49929377 0.36984724 0.8876333 0.0 -0.7396945 0.64723265 -0.7581868 -0.20341597
-0.3328625 -0.46230903 -0.25889307 -0.110954165 0.073969446 0.12944654 0.018492362 -0.46230903
0.0 -0.14793889 -0.036984723 -0.51778615 0.09246181 -0.18492362 0.14793889 -0.3328625
-0.5362785 -0.31437016 0.2773854 0.14793889 0.40683195 0.110954165 -0.2773854 -0.31437016
0.6287403 -0.12944654 1.0910493 -0.14793889 -0.8876333 0.70270973 -0.38833958 0.35135487
0.85064864 0.5732632 -0.110954165 0.35135487 -0.64723265 -0.14793889 0.0 0.6287403
-0.92461807 0.14793889 -1.2574806 0.4808014 0.5732632 -0.2404007 0.29587778 -1.0170798
0.31437016 1.128034 -0.22190833 0.25889307 -0.35135487 0.40683195 -0.7396945 0.8876333
-0.20341597 0.22190833 -0.35135487 0.36984724 -0.51778615 -0.46230903 0.036984723 -0.16643125
00000000: ecf5 c2e9 e922 15fc 07af 0305 fc19 2322
00000010: 0300 c70c 072c 1002 00bc f9f1 f32c 1106
00000020: fccd 08df eb0a 16da 0e10 27c9 f127 18fa
00000030: 2ae7 0b08 e0e1 37fb fa1a e3fc 3d04 0bd1
00000040: e4ed 1bc5 0e81 99f9 0617 f1e8 02d6 3327
00000050: f9c8 13d3 19e6 11dd f113 22db fc07 0b1a
00000060: e9f9 06ef edfa fbf3 f7fb eced 0d03 edf2
00000070: dc2a 0dee 21fa c11d 1ffe 0111 c5e4 f733
00000080: 02ff 19bf 9bea f818 22ee 0bcc 03ed 1324
00000090: 01dc 1902 fbf3 1dcc 090a 21df 050e 03e9
000000a0: 0e03 21ae acc6 d810 1a07 fee4 09f0 1918
000000b0: dc0f f30f ee0e faed 1b14 3000 d823 d7f5
000000c0: eee7 f2fa 0407 01e7 00f8 fee4 05f6 08ee
000000d0: e3ef 0f08 1606 f1ef 22f9 3bf8 d026 eb13
000000e0: 2e1f fa13 ddf8 0022 ce08 bc1a 1ff3 10c9
000000f0: 113d f40e ed16 d830 f50c ed14 e4e7 02f7

sequential_4/dense_9/MatMul i1 [4, 16] scale=0.021542307 zero_point=0
-1.8095537 -1.2494538 -0.9263192 0.84015 -2.1973152 -2.735873 -0.21542308 -1.5295038
-0.71089613 -1.0986576 0.0 -0.36621922 0.10771154 -2.1542306 1.5295038 0.8616923
-1.5941308 -0.7970654 1.2709961 0.23696537 -1.2925384 0.56009996 0.3231346 -0.8186077
-1.8526384 1.0124885 -1.0340307 0.6678115 -0.06462692 0.3446769 -1.6372154 -1.335623
-1.831096 -1.7664691 -2.4342806 -2.326569 -2.3481114 -2.2188575 -0.28004998 1.3571653
-1.2925384 -2.3481114 -1.0340307 1.2063692 -0.21542308 0.6031846 -1.055573 1.0986576
1.8095537 1.1201999 0.58164227 -0.23696537 1.1201999 0.6247269 -0.38776153 0.56009996
2.735873 -0.3446769 1.895723 -0.8186077 -0.021542307 -0.3015923 -0.021542307 -0.3446769
00000000: acc6 d527 9a81 f6b9 dfcd 00ef 059c 4728
00000010: b6db 3b0b c41a 0fda aa2f d01f fd10 b4c2
00000020: abae 8f94 9399 f33f c493 d038 f61c cf33
00000030: 5434 1bf5 341d ee1a 7ff0 58da fff2 fff0
