generated_model/model_CNN-S.tflite (tflite, 7760 bytes, 8 tensors)

sequential_4/dense_9/BiasAdd/ReadVariableOp f4 [4]
0	0x3f423bfd	0.75872785
1	0x3c131795	0.00897779
2	0xbcd63cd7	-0.026152058
3	0xbf15272b	-0.5826289

sequential_4/dense_8/BiasAdd/ReadVariableOp f4 [16]
0	0x3dc4ccc2	0.09609367
1	0x3e1b5023	0.15167288
2	0x3e2e7dec	0.17040223
3	0x3d6de6fe	0.05808162
4	0x3eb02501	0.34403232
5	0x3e5fd854	0.21859866
6	0xbdcb5317	-0.099279575
7	0x3e2d870e	0.1694605
8	0x3e2ebbb0	0.17063785
9	0xbd940e79	-0.07229323
10	0x3ddc1208	0.10745627
11	0xbd86b42b	-0.06577333
12	0xbdcf771d	-0.10130141
13	0xbdd19f0d	-0.10235415
14	0x3e0bbd6d	0.13646479
15	0x3dadab13	0.084798954

sequential_4/activation_11/Relu;sequential_4/batch_normalization_11/FusedBatchNormV3;sequential_4/conv2d_11/BiasAdd/ReadVariableOp;sequential_4/conv2d_11/BiasAdd;sequential_4/conv2d_11/Conv2D f4 [8]
0	0xbfc1985a	-1.5124619
1	0xbe54ee51	-0.20794035
2	0x3bf971d1	0.007612445
3	0xbf88ea0a	-1.0696423
4	0xbe8296b6	-0.25505608
5	0xbe66a9b1	-0.2252567
6	0xbfcd44e1	-1.6036645
7	0x3e139b71	0.14414765

sequential_4/activation_12/Relu;sequential_4/batch_normalization_12/FusedBatchNormV3;sequential_4/conv2d_12/BiasAdd/ReadVariableOp;sequential_4/conv2d_12/BiasAdd;sequential_4/conv2d_12/Conv2D f4 [16]
0	0xbd2599fa	-0.040430047
1	0x3faf00dd	1.3672138
2	0x3d731d60	0.059354186
3	0xc003f08c	-2.0615568
4	0xc0183a96	-2.3785758
5	0xc0478507	-3.1174943
6	0xbf9a55b1	-1.2057401
7	0x3fb47658	1.4098616
8	0x3e39db54	0.18150073
9	0x3f7d0bc6	0.9884609
10	0x3eaf7d4a	0.34275275
11	0xbfe80729	-1.8127185
12	0xbfe51545	-1.7897116
13	0x3f971894	1.1804376
14	0xbec45910	-0.383492
15	0xbf268fcb	-0.6506316

sequential_4/dense_8/MatMul f4 [16, 16]
0	0xbebc1291	-0.36732915
1	0xbe547330	-0.20747066
2	0xbf91eb4e	-1.1399934
3	0xbed8382e	-0.42230362
4	0xbed595af	-0.41715762
5	0x3f1f44d2	0.62214386
6	0x3ec44691	0.38335088
7	0xbd8f90fe	-0.07010077
8	0x3e0b4c4f	0.13603328
9	0xbfbf2766	-1.4933898
10	0x3d7b7567	0.06139126
11	0x3daca79e	0.08430408
12	0xbda2d290	-0.07950318
13	0x3eee0d8c	0.4649471
14	0x3f23f6e4	0.640486
15	0x3f20f36a	0.6287142
16	0x3d5a23c9	0.053256784
17	0xbab5883f	-0.0013849809
18	0xbf86f91b	-1.0544771
19	0x3e698f5f	0.22808598
20	0x3df8d261	0.121495016
21	0x3f5016b6	0.81284654
22	0x3e94015c	0.28907287
23	0x3d369516	0.044575773
24	0xba3f8924	-0.00073065073
25	0xbfa18562	-1.261883
26	0xbe019fdb	-0.12658636
27	0xbe9022f5	-0.2815167
28	0xbe7f3ba3	-0.24925093
29	0x3f5129b1	0.8170424
30	0x3e9cc50b	0.30619082
31	0x3df51f0d	0.11968813
32	0xbda373d3	-0.07981076
33	0xbf72c957	-0.9483847
34	0x3e1d7ce7	0.15379678
35	0xbf1ba63b	-0.6080052
36	0xbec5f22c	-0.38661325
37	0x3e46a41e	0.19398543
38	0x3ecf26e6	0.40459365
39	0xbf322a3c	-0.69595695
40	0x3e864567	0.26224825
41	0x3e97edf9	0.29673746
42	0x3f395e82	0.7240983
43	0xbf829fd5	-1.0205027
44	0xbe8c2a8c	-0.2737621
45	0x3f37762f	0.7166471
46	0x3ee156a7	0.44011423
47	0xbdd9f6b7	-0.1064276
48	0x3f46e083	0.7768633
49	0xbeeb27ec	-0.45928895
50	0x3e4e569b	0.20150225
51	0x3e1525fd	0.14565273
52	0xbf185caa	-0.59516394
53	0xbf142ac8	-0.5787778
54	0x3f83291c	1.024692
55	0xbdcbddbd	-0.099544026
56	0xbdd2303c	-0.10263106
57	0x3efa0677	0.48833057
58	0xbf0ab5e2	-0.5418378
59	0xbd954115	-0.07287804
60	0x3f8ff7ab	1.1247457
61	0x3d99b0a1	0.075043924
62	0x3e47a8c1	0.19497968
63	0xbf5f43b3	-0.87212676
64	0xbf049aa4	-0.5179846
65	0xbeb7c455	-0.35891977
66	0x3efb981c	0.49139488
67	0xbf8ccba5	-1.0999647
68	0x3e83dc1d	0.2575387
69	0xc0164e50	-2.3485298
70	0xbff2cbf9	-1.8968498
71	0xbe02d4ad	-0.12776442
72	0x3de8de0c	0.11370477
73	0x3ed523bb	0.41628823
74	0xbe8f9472	-0.28042942
75	0xbee1b0d8	-0.44080234
76	0x3d289d65	0.041165728
77	0xbf45c1a2	-0.77248585
78	0x3f6fa112	0.9360515
79	0x3f364d2b	0.712115
80	0xbe0a25ca	-0.13490978
81	0xbf84e2d9	-1.0381728
82	0x3eafff54	0.34374487
83	0xbf553263	-0.8328001
84	0x3eea95df	0.45817468
85	0xbef7283f	-0.48272893
86	0x3e9dae1a	0.3079689
87	0xbf26e4bd	-0.65192777
88	0xbe928f53	-0.28624973
89	0x3eafc514	0.34330046
90	0x3f1eaf6a	0.6198641
91	0xbf2f83fd	-0.68560773
92	0xbd87d321	-0.066320665
93	0x3e09743f	0.1342325
94	0x3e552b77	0.20817362
95	0x3ef60e60	0.48057842
96	0xbed95cce	-0.42453617
97	0xbe035e82	-0.1282902
98	0x3de02cfc	0.1094608
99	0xbe9d8c84	-0.30771267
100	0xbeb766e7	-0.35820696
101	0xbdf04ce2	-0.11733414
102	0xbdb7a2f6	-0.08966629
103	0xbe7d98c6	-0.2476531
104	0xbe26dcf4	-0.16295224
105	0xbdcbc6f3	-0.09950056
106	0xbebdfb4b	-0.37105784
107	0xbeb4e5c8	-0.3533156
108	0x3e71c17c	0.23608965
109	0x3d4faf7e	0.05070447
110	0xbeb638af	-0.3559012
111	0xbe81477b	-0.25249848
112	0xbf2bef8b	-0.6716239
113	0x3f45ca71	0.77262026
114	0x3e778072	0.24170092
115	0xbeaf25a4	-0.34208405
116	0x3f1e8217	0.6191725
117	0xbdd1ad92	-0.10238184
118	0xbf95a385	-1.1690527
119	0x3f07d83c	0.5306432
120	0x3f142b35	0.5787843
121	0xbd12fb8a	-0.035884418
122	0x3c76aa1e	0.015055208
123	0x3ea557cf	0.32293555
124	0xbf8af493	-1.0855888
125	0xbf06b7bb	-0.526241
126	0xbe23a2da	-0.15980092
127	0x3f71a472	0.9439155
128	0x3d21863b	0.039434653
129	0xbcda9ec9	-0.026687043
130	0x3eedb363	0.46425924
131	0xbf9954e1	-1.1979028
132	0xbfef36b6	-1.8688571
133	0xbecd8164	-0.4013778
134	0xbe18773e	-0.14889237
135	0x3ee71939	0.4513643
136	0x3f21542d	0.6301907
137	0xbeaa220d	-0.33229104
138	0x3e55fcba	0.20897189
139	0xbf76eb9a	-0.9645325
140	0x3d7cf479	0.061756585
141	0xbeb37fed	-0.35058537
142	0x3eb5f5f9	0.35539225
143	0x3f294b50	0.6613054
144	0x3c84452c	0.016146265
145	0xbf2c804e	-0.6738328
146	0x3eee23b4	0.46511614
147	0x3d1c7480	0.03819704
148	0xbdba28eb	-0.09089836
149	0xbe6d9072	-0.23199633
150	0x3f074fef	0.52856344
151	0xbf749030	-0.9553251
152	0x3e24e377	0.16102396
153	0x3e40e563	0.18837504
154	0x3f1e628c	0.6186912
155	0xbf1d068c	-0.61338115
156	0x3dbf90bf	0.0935378
157	0x3e880863	0.265689
158	0x3d48fdd6	0.0490702
159	0xbed72578	-0.42020774
160	0x3e80365c	0.25041473
161	0x3d4ed8ae	0.05049961
162	0x3f1a9625	0.6038535
163	0xbfc20070	-1.5156384
164	0xbfc7d8b0	-1.5613003
165	0xbf89680d	-1.0734879
166	0xbf3d6eda	-0.7399727
167	0x3e92e6f6	0.28691834
168	0x3ef93ab9	0.48677614
169	0x3e0ba2c6	0.13636312
170	0xbcfea6f2	-0.031085465
171	0xbf05adee	-0.5221852
172	0x3e320b6f	0.17387174
173	0xbe9634fb	-0.29337296
174	0x3eefe2a4	0.468526
175	0x3ee3ff5d	0.44530764
176	0xbf2b231b	-0.6685044
177	0x3e8ab207	0.2708895
178	0xbe6d1fe5	-0.23156698
179	0x3e8ea4f1	0.27860215
180	0xbea9460d	-0.33061257
181	0x3e82da5b	0.25557217
182	0xbde54060	-0.11193919
183	0xbeb6604c	-0.35620344
184	0x3efd995d	0.4953107
185	0x3eb8ab80	0.36068344
186	0x3f644780	0.891716
187	0x3a77577c	0.00094353384
188	0xbf3e81ec	-0.74416995
189	0x3f256d3d	0.6461981
190	0xbf416628	-0.75546503
191	0xbe573164	-0.21014935
192	0xbea66a10	-0.32502794
193	0xbeecc885	-0.46246734
194	0xbe88ae79	-0.26695612
195	0xbdda9141	-0.10672236
196	0x3d993713	0.07481208
197	0x3e028b50	0.12748456
198	0x3c638532	0.013886737
199	0xbef07594	-0.46964705
200	0x3b91c5d4	0.004448632
201	0xbe1b7641	-0.15181829
202	0xbd0ec80b	-0.034858745
203	0xbf02d511	-0.51106364
204	0x3dbe570c	0.092939466
205	0xbe38d59b	-0.18050234
206	0x3e0f5eee	0.14001057
207	0xbea61606	-0.32438678
208	0xbf07b4b9	-0.53010136
209	0xbea36587	-0.31913397
210	0x3e8c048b	0.27347216
211	0x3e1fcdf8	0.15605915
212	0x3ed44713	0.41460475
213	0x3ddfbea7	0.10925036
214	0xbe916680	-0.28398514
215	0xbe9dfaa6	-0.30855292
216	0x3f1ef27e	0.62088764
217	0xbe0d4bd8	-0.13798463
218	0x3f8b72be	1.0894392
219	0xbe12dbd4	-0.1434167
220	0xbf62b6b7	-0.8856005
221	0x3f32e3a0	0.6987858
222	0xbec77ec6	-0.38963908
223	0x3eb3feef	0.35155436
224	0x3f580503	0.8438265
225	0x3f1142cf	0.56742567
226	0xbddeb610	-0.108745694
227	0x3eb6a933	0.35675964
228	0xbf262dc9	-0.6491361
229	0xbe1bd92b	-0.15219562
230	0x3b16e785	0.002302618
231	0x3f1f1dc3	0.6215479
232	0xbf6aeb37	-0.9176516
233	0x3e1f3768	0.1554848
234	0xbfa0d788	-1.2565775
235	0x3ef2f117	0.47449562
236	0x3f11e093	0.569833
237	0xbe759046	-0.23980817
238	0x3e97972b	0.2960752
239	0xbf831ba8	-1.0242815
240	0x3ea4e8f3	0.32208976
241	0x3f917159	1.1362716
242	0xbe6b7cd4	-0.22996837
243	0x3e8707be	0.26373094
244	0xbeb52792	-0.35381752
245	0x3ecfccb4	0.40585864
246	0xbf3c74a2	-0.7361547
247	0x3f64ca86	0.89371526
248	0xbe496b37	-0.19669805
249	0x3e66c49f	0.22535942
250	0xbeb46f9a	-0.35241395
251	0x3ebcb014	0.36853087
252	0xbf024bbb	-0.50896806
253	0xbef1562b	-0.47136053
254	0x3d2a5179	0.041581605
255	0xbe2e7e1b	-0.17040293

sequential_4/dense_9/MatMul f4 [4, 16]
0	0xbfe8ff73	-1.8202957
1	0xbfa0f216	-1.2573879
2	0xbf6d4ed7	-0.92698425
3	0x3f58ad39	0.84639317
4	0xc00c63e8	-2.1935978
5	0xc02e82c1	-2.7267306
6	0xbe523b0d	-0.20530339
7	0xbfc4d0a7	-1.5376176
8	0xbf33828d	-0.7012108
9	0xbf8c8246	-1.0977256
10	0x3b2660bd	0.002538725
11	0xbeb90807	-0.36138937
12	0x3dd3e5fe	0.10346602
13	0xc009c990	-2.1529274
14	0x3fc4229c	1.5323062
15	0x3f5ed4d7	0.8704352
16	0xbfcc1684	-1.5944371
17	0xbf4cf35d	-0.8005884
18	0x3fa321e4	1.2744718
19	0x3e6f2aff	0.23356245
20	0xbfa5540e	-1.2916276
21	0x3f1196c6	0.56870687
22	0x3ea341dc	0.31886184
23	0xbf525518	-0.8216109
24	0xbfed8f43	-1.8559345
25	0x3f80cb00	1.0061951
26	0xbf8530b5	-1.0405489
27	0x3f29c061	0.6630917
28	0xbd73b3df	-0.05949771
29	0x3eb18d1a	0.34677964
30	0xbfd2d5e7	-1.6471528
31	0xbfa9b41c	-1.325809
32	0xbfea939d	-1.8326298
33	0xbfe0f6f0	-1.7575359
34	0xc01b4fc8	-2.4267445
35	0xc0157fc3	-2.335923
36	0xc0164fac	-2.3486128
37	0xc00e22da	-2.2208772
38	0xbe92cdee	-0.28672737
39	0x3facf24a	1.3511441
40	0xbfa4e273	-1.2881607
41	0xc015bb17	-2.339544
42	0xbf859362	-1.0435603
43	0x3f9a031a	1.2032197
44	0xbe5a40f1	-0.21313836
45	0x3f193e57	0.5986075
46	0xbf87fbf3	-1.0623764
47	0x3f8b6da7	1.0892838
48	0x3fe8916b	1.8169378
49	0x3f8e5d86	1.1122291
50	0x3f153382	0.5828172
51	0xbe6aac25	-0.2291723
52	0x3f8ec3ad	1.1153466
53	0x3f1fcf79	0.62425953
54	0xbecbfbe4	-0.39840615
55	0x3f0e4677	0.5557627
56	0x402f188b	2.735873
57	0xbeaf6c05	-0.342621
58	0x3ff20e94	1.8910699
59	0xbf53ca2d	-0.8273037
60	0xbc7ad9ac	-0.015310686
61	0xbe94f5e0	-0.29093838
62	0xbcaa4db7	-0.02078901
63	0xbeae1c07	-0.34005758

sequential_4/conv2d_11/Conv2D f4 [8, 4, 3, 1]
0	0x3ad05cfb	0.0015896851
1	0xb8a9b7ec	-8.092806e-05
2	0xb98028ee	-0.00024444557
3	0xba822617	-0.0009929565
4	0x3a62a712	0.0008646111
5	0x39db3326	0.00041809044
6	0xbaccd9c1	-0.001562886
7	0x3af91925	0.0019004686
8	0xb9ae7763	-0.00033276816
9	0x393c150c	0.00017936918
10	0xbae69006	-0.001759053
11	0x3ae53474	0.0017486946
12	0x39b52759	0.00034552327
13	0x37ebba9e	2.8101083e-05
14	0x38d9cf09	0.000103859296
15	0x3a462af7	0.0007559503
16	0x38be669b	9.079018e-05
17	0x38df8e58	0.00010659982
18	0x3a4f449d	0.00079066475
19	0x38c5a454	9.4243005e-05
20	0xb98c0069	-0.00026703186
21	0x3a945a48	0.001131841
22	0xb8bb208f	-8.9229194e-05
23	0xb9d8b55c	-0.00041333854
24	0xb9c55a28	-0.0003764194
25	0xba75666f	-0.0009361272
26	0xb91403f6	-0.00014115855
27	0x39aae06a	0.00032592128
28	0x39315433	0.00016911402
29	0x3970107a	0.00022894322
30	0xb8e7d029	-0.00011053711
31	0xba25c890	-0.00063241366
32	0xb9bf44ea	-0.00036481704
33	0x39d7f78e	0.00041192438
34	0xb8c63f79	-9.4531984e-05
35	0x39ac31c7	0.00032843483
36	0x39f82d78	0.00047336123
37	0xba02d468	-0.00049907574
38	0x3a67a78b	0.00088369165
39	0x38a67c81	7.9386875e-05
40	0xba0bb6eb	-0.0005329686
41	0x3987b926	0.00025887153
42	0xb8d83431	-0.00010309404
43	0xb9980503	-0.00028995433
44	0xb8a4e723	-7.863182e-05
45	0x39d0c5dc	0.00039820268
46	0x399a7d5f	0.00029466578
47	0x3915e3b4	0.00014294573
48	0xba0a219c	-0.00052692904
49	0xb9ff0633	-0.0004864201
50	0x3b2521fc	0.0025197258
51	0x3a38c014	0.0007047665
52	0x38033c61	3.1289066e-05
53	0x3b093de0	0.0020941421
54	0x3a8fcdb0	0.0010971334
55	0xb89e9a53	-7.562772e-05
56	0xbb001f39	-0.001954986
57	0x3a033663	0.00050053577
58	0xb92689fb	-0.00015882395
59	0xbb222dae	-0.0024746465
60	0x3a35652c	0.0006919678
61	0x39206d96	0.00015299613
62	0xba181e65	-0.0005802869
63	0x3a9cc778	0.0011961302
64	0xba6b35f4	-0.0008972578
65	0x3981bfaa	0.00024747598
66	0x3a8ac2f9	0.0010586671
67	0xb88ce787	-6.7188455e-05
68	0x395a67b5	0.00020828734
69	0x388eae8c	6.8035995e-05
70	0x378c0773	1.669277e-05
71	0x3a0b2591	0.0005308027
72	0xb98db7f5	-0.00027030674
73	0x397bc953	0.00024012224
74	0x394c57bb	0.00019487638
75	0x388c6aa7	6.695586e-05
76	0x39325a17	0.00017008964
77	0x3940c07a	0.0001838225
78	0x38b6c823	8.715715e-05
79	0x3a2d4c34	0.00066107814
80	0x3904f401	0.000126794
81	0x387e7062	6.0662984e-05
82	0x39d44883	0.00040489816
83	0x38a18e17	7.7035445e-05
84	0xb90a938d	-0.00013215673
85	0xb9a9900a	-0.0003234151
86	0x36e470f2	6.808078e-06
87	0xb9c0148f	-0.0003663641
88	0xb9320b91	-0.00016979712
89	0xb8fe1fb2	-0.000121175675
90	0xb983cb06	-0.0002513753
91	0xb9a612df	-0.00031676047
92	0xb8237942	-3.897516e-05
93	0xb887cb25	-6.47514e-05
94	0xba11325e	-0.00055388163
95	0xb8835d34	-6.263927e-05

sequential_4/conv2d_12/Conv2D f4 [16, 4, 1, 8]
0	0x3f453407	0.7703251
1	0xbd64b2d4	-0.055834606
2	0x3f4534bc	0.7703359
3	0xbf4b57b9	-0.7943073
4	0xbefd6f41	-0.49498942
5	0xbe658d03	-0.22417073
6	0x3e90e89e	0.28302473
7	0x3e93451d	0.28763667
8	0x3d9c6923	0.07637241
9	0x3ce71ff7	0.028213484
10	0x3e0d0ed0	0.13775182
11	0xbf8430e9	-1.0327426
12	0xbe55da1b	-0.20883982
13	0xbe23684a	-0.15957752
14	0xbcf46ba5	-0.029836485
15	0x3db29e6d	0.087216236
16	0xbe382f79	-0.1798686
17	0x3cd7c6ea	0.026339967
18	0x3e55e39b	0.20887606
19	0xbf803afb	-1.0018
20	0x3da5da38	0.080982625
21	0x3e35fe47	0.1777278
22	0x3dec7207	0.115451865
23	0x3e84bcf0	0.25925398
24	0xbf0b7c1b	-0.54486245
25	0x3db46394	0.088080555
26	0x3f9bcc1f	1.2171668
27	0xbf6881d0	-0.9082308
28	0x3e368c94	0.17827064
29	0x3e0ab953	0.13547258
30	0xbe6c3b95	-0.23069604
31	0xbd889930	-0.06669843
32	0xbfade52b	-1.3585562
33	0x3ecf6591	0.40507177
34	0x3ebe841b	0.37210163
35	0xbf874f8c	-1.0571151
36	0x3e29ed2c	0.1659438
37	0xbecbce84	-0.39805996
38	0x3ea3a34b	0.3196052
39	0xbe0e01d9	-0.13867892
40	0xbfac72de	-1.3472555
41	0xbf4b2e27	-0.793673
42	0x3c9583fa	0.018251408
43	0xbf9fac75	-1.2474505
44	0x3ef2dd60	0.4743452
45	0xbe836773	-0.25664863
46	0x3e9b65af	0.30351016
47	0xbe86f7df	-0.26360986
48	0xbf11f9c4	-0.5702174
49	0xbf0878b5	-0.53309184
50	0x3eb97850	0.36224604
51	0xbf97feb5	-1.1874605
52	0xbdb26966	-0.087115094
53	0x3d39b230	0.04533595
54	0x3f80153f	1.0006484
55	0xbe0e2f35	-0.13885196
56	0xbf00658c	-0.5015495
57	0xbf16c9ba	-0.5890156
58	0x3ea237f8	0.31683326
59	0xbeccd179	-0.40003565
60	0x3ec2ee4f	0.3807244
61	0x3f7f6823	0.99768275
62	0x3faa5ddc	1.3309894
63	0xbec89baa	-0.39181262
64	0x3e99413f	0.2993259
65	0x3ebf6872	0.37384373
66	0x3e264d56	0.16240439
67	0xbe8ca743	-0.2747136
68	0x3d9618fc	0.07328984
69	0xbf7548ee	-0.95814407
70	0x3e18a358	0.1490606
71	0x3e91b2db	0.28456768
72	0x3f060a80	0.5235977
73	0xbde1a963	-0.11018636
74	0x3de67346	0.112524554
75	0x3f41ce77	0.75705665
76	0x3eb11b9d	0.3459138
77	0xbf14289c	-0.57874465
78	0x3d610107	0.05493262
79	0xbd4b6354	-0.049655274
80	0xbe57e5ea	-0.21083799
81	0xbecaccc1	-0.3960934
82	0xbcd37f6b	-0.025817594
83	0x3eb9bfe0	0.36279202
84	0x3e6050ef	0.21905874
85	0xbee43f88	-0.4457972
86	0xbe1b1e19	-0.151482
87	0xbeee5928	-0.46552396
88	0xbce6c2de	-0.028169092
89	0xbedb89fe	-0.42878717
90	0xbcdecc50	-0.027197033
91	0x3fd676a2	1.6754954
92	0xbd88dc15	-0.06682602
93	0x3d9508ad	0.072770454
94	0x3c572fad	0.013133925
95	0xbf121834	-0.5706818
96	0xbe1ed0c7	-0.1550933
97	0xbe26b735	-0.16280825
98	0x3f468097	0.7753996
99	0x40183f2f	2.3788564
100	0x3e3a46c6	0.1819106
101	0xbe8c7863	-0.27435598
102	0x3f0ccb4c	0.54997706
103	0xbe4934bc	-0.19649023
104	0x4010bb92	2.2614484
105	0x3ef8069a	0.48442537
106	0x3e656679	0.22402371
107	0xbd09d6f8	-0.033652276
108	0x3ec2ec61	0.38070968
109	0xbee483be	-0.4463176
110	0x3efde457	0.49588272
111	0xbe65f3e1	-0.22456314
112	0x3e85b197	0.26112053
113	0xbc90e0c7	-0.017685307
114	0x3fa6fe52	1.3046362
115	0xbeb40ef8	-0.3516767
116	0x3edc90ba	0.43079168
117	0xbece5824	-0.4030162
118	0xbf14008e	-0.57813346
119	0xbde9dde3	-0.11419275
120	0x3dd0eeaf	0.10201775
121	0x3ea0caf2	0.31404835
122	0x3ef137e2	0.47112948
123	0xbea1c615	-0.31596437
124	0xbe808534	-0.25101626
125	0xbe8cfbd0	-0.27535868
126	0xbf5a3b91	-0.8524714
127	0xbe20f44f	-0.15718196
128	0x3edb9fda	0.42895395
129	0x3f2301d9	0.63674694
130	0x3e931c5a	0.28732568
131	0xbf6a8b65	-0.9161895
132	0xbef20297	-0.472676
133	0xbed997f4	-0.42498744
134	0x3eaf03f8	0.34182715
135	0x3ea61929	0.3244107
136	0x3f18b161	0.5964566
137	0x3f03293f	0.5123481
138	0x3ed317fb	0.41229233
139	0xbeffc85b	-0.49957547
140	0xbeb93fc6	-0.36181468
141	0xbeb8db16	-0.3610465
142	0xbe62b55d	-0.22139497
143	0x3ef1df92	0.47240883
144	0x3f119e0a	0.56881773
145	0x3ec1aab9	0.37825564
146	0x3e9cfaa1	0.30659965
147	0x3e7758cf	0.24154972
148	0x3e13d89a	0.14438096
149	0xbe189da8	-0.14903891
150	0x3fb90055	1.4453226
151	0x3e9a0c02	0.30087286
152	0x3e9f384c	0.3109764
153	0x3e1a41ce	0.15064165
154	0x3e88bbd2	0.26705796
155	0x3f96d4ef	1.1783732
156	0x3e7ccabb	0.2468671
157	0xbce57033	-0.028007602
158	0x3fc7b95a	1.560344
159	0xbcfea809	-0.031085985
160	0x3fc37f70	1.5273266
161	0x3e9a2dcc	0.30113065
162	0x3f6f050e	0.9336709
163	0x3daaef8c	0.08346471
164	0xbe674127	-0.22583447
165	0xbe1f48b1	-0.15555073
166	0xbd405376	-0.046954595
167	0x3f5cc12b	0.8623225
168	0x3fcd0589	1.6017314
169	0x3e2719ea	0.16318479
170	0x3ed6c3e2	0.41946322
171	0x3ed3d992	0.4137693
172	0xbd8e5f3f	-0.069517605
173	0x3e9b58c5	0.30341163
174	0x3ea827a1	0.32842734
175	0x3ea616ef	0.32439372
176	0x3e05e930	0.13077235
177	0x3e69110f	0.22760414
178	0x3daae3a9	0.08344204
179	0x3e5993c4	0.21247774
180	0x3edfcb92	0.4371
181	0xbe83698d	-0.25666466
182	0xbe392dae	-0.18083832
183	0x3d635316	0.05549916
184	0xbcd5a43e	-0.026079293
185	0xbec12d09	-0.37729672
186	0x3d223884	0.03960468
187	0x3e558d91	0.20854785
188	0x3f206b3e	0.6266364
189	0x3d897844	0.06712392
190	0x3d0b0c31	0.033947174
191	0x3f03f87a	0.5155102
192	0x3d1e1b7f	0.03860044
193	0x3e008283	0.12549786
194	0x3d4fea01	0.050760273
195	0xbe23060a	-0.15920272
196	0x3d2c7be4	0.04211034
197	0xbe998a42	-0.29988295
198	0xbf1c97d6	-0.61169183
199	0xbe070a0e	-0.1318743
200	0x3ecf598c	0.40498006
201	0x3f9ded48	1.2338037
202	0x3de6c6a5	0.11268357
203	0xbf25a22d	-0.64700586
204	0x3e8b3468	0.2718842
205	0xbef5580d	-0.4791874
206	0xbf3efa46	-0.74600637
207	0xbd41b1a2	-0.047288544
208	0x3f085be3	0.5326521
209	0x3e14629a	0.14490739
210	0x3f4a3232	0.7898284
211	0xbf2a9afa	-0.66642725
212	0x3ed4d307	0.4156725
213	0xbedba037	-0.42895672
214	0xbf3cd649	-0.73764473
215	0x3c80fa55	0.015744368
216	0x3fb296eb	1.3952307
217	0x3f2845b6	0.6573137
218	0x3f24b3cd	0.64336854
219	0xbeef0a09	-0.46687344
220	0x3ea53b00	0.32271576
221	0xbf130fe1	-0.57446104
222	0xbf0249a6	-0.5089363
223	0xbd9557f1	-0.07292164
224	0xbf067dea	-0.5253588
225	0x3eafcda1	0.3433657
226	0x3edd5280	0.43227005
227	0xbeb79691	-0.3585706
228	0xbed4498d	-0.41462365
229	0xbec04b37	-0.37557384
230	0xbf7b8766	-0.98253477
231	0x3ea66467	0.32498476
232	0xbf61b683	-0.88169116
233	0xbe463078	-0.19354427
234	0xbef0cfe2	-0.47033602
235	0xbe6a64d0	-0.2289002
236	0x3def7e38	0.11693996
237	0xbed8f647	-0.42375395
238	0xbf7c3b00	-0.98527527
239	0xbf45e1fd	-0.77297956
240	0x3c6ea736	0.014566233
241	0x3dcb2eda	0.099210456
242	0x3da30d50	0.079615235
243	0xbe234b11	-0.15946604
244	0xbeb78a83	-0.35847864
245	0xbe7adbfc	-0.2449798
246	0xbe2f04b2	-0.17091635
247	0xbea82406	-0.32839984
248	0xbe92ef81	-0.28698352
249	0x3d640b3f	0.055674788
250	0xbf07640b	-0.5288703
251	0xbca5042f	-0.020143596
252	0x3ea58ee4	0.3233558
253	0x3f9d94fb	1.231109
254	0xbf018939	-0.5060001
255	0xbf1a23ed	-0.6021107
