generated_model/model_CNN_quantized.tflite (tflite, 10616 bytes, 5 tensors)

sequential_3/conv2d_8/Conv2D i1 [8, 4, 3, 1]
0	0x03	3
1	0x04	4
2	0xee	-18
3	0xdd	-35
4	0x05	5
5	0x26	38
6	0x1b	27
7	0x3f	63
8	0x4a	74
9	0x81	-127
10	0x05	5
11	0x1c	28
12	0x7f	127
13	0xd9	-39
14	0x04	4
15	0x1d	29
16	0xc5	-59
17	0xe9	-23
18	0x36	54
19	0x53	83
20	0xee	-18
21	0xd8	-40
22	0x0d	13
23	0xe2	-30
24	0x66	102
25	0xf0	-16
26	0x3f	63
27	0x78	120
28	0xc4	-60
29	0xe7	-25
30	0x7f	127
31	0xbe	-66
32	0x09	9
33	0x59	89
34	0xf3	-13
35	0x45	69
36	0x5b	91
37	0x08	8
38	0xb6	-74
39	0xa8	-88
40	0x61	97
41	0x25	37
42	0x0d	13
43	0xa5	-91
44	0x43	67
45	0x18	24
46	0x7f	127
47	0xf5	-11
48	0xda	-38
49	0x81	-127
50	0x9b	-101
51	0x16	22
52	0x86	-122
53	0xfb	-5
54	0xb7	-73
55	0x5f	95
56	0x38	56
57	0x49	73
58	0xdf	-33
59	0x48	72
60	0xa3	-93
61	0x45	69
62	0xcb	-53
63	0xee	-18
64	0xd4	-44
65	0x42	66
66	0x98	-104
67	0x4f	79
68	0x21	33
69	0xa5	-91
70	0xff	-1
71	0x81	-127
72	0x2b	43
73	0x13	19
74	0x73	115
75	0x2a	42
76	0x1e	30
77	0x15	21
78	0x4c	76
79	0xbd	-67
80	0x36	54
81	0x05	5
82	0x81	-127
83	0x14	20
84	0x40	64
85	0xe7	-25
86	0x00	0
87	0xf5	-11
88	0x14	20
89	0xe1	-31
90	0xc9	-55
91	0x43	67
92	0x7f	127
93	0xd1	-47
94	0xf5	-11
95	0x28	40

sequential_3/conv2d_9/Conv2D i1 [16, 4, 1, 8]
0	0x04	4
1	0x2b	43
2	0x09	9
3	0x81	-127
4	0x0c	12
5	0x3e	62
6	0xd5	-43
7	0xdc	-36
8	0xfc	-4
9	0xfd	-3
10	0xe7	-25
11	0x91	-111
12	0xf8	-8
13	0x07	7
14	0xcd	-51
15	0xcd	-51
16	0xe5	-27
17	0x05	5
18	0xf0	-16
19	0xb5	-75
20	0x25	37
21	0x1d	29
22	0xcd	-51
23	0xd4	-44
24	0xd5	-43
25	0xf0	-16
26	0x21	33
27	0xbc	-68
28	0x1b	27
29	0x0e	14
30	0xdd	-35
31	0xb4	-76
32	0xae	-82
33	0xd3	-45
34	0x58	88
35	0xa7	-89
36	0x98	-104
37	0x25	37
38	0x30	48
39	0xc2	-62
40	0x8d	-115
41	0xc0	-64
42	0x0d	13
43	0x9c	-100
44	0x81	-127
45	0xfb	-5
46	0x0d	13
47	0xc8	-56
48	0xe7	-25
49	0xd4	-44
50	0x2c	44
51	0xb0	-80
52	0x99	-103
53	0xf2	-14
54	0xee	-18
55	0xea	-22
56	0xd2	-46
57	0xf7	-9
58	0x11	17
59	0xc5	-59
60	0xb9	-71
61	0xf0	-16
62	0xc0	-64
63	0xe4	-28
64	0x3a	58
65	0xec	-20
66	0x66	102
67	0x13	19
68	0x3e	62
69	0xda	-38
70	0xff	-1
71	0xef	-17
72	0x47	71
73	0x39	57
74	0x4d	77
75	0x89	-119
76	0x15	21
77	0x2b	43
78	0xdf	-33
79	0xb8	-72
80	0xb9	-71
81	0x11	17
82	0xfa	-6
83	0xb4	-76
84	0x0c	12
85	0xe2	-30
86	0xf0	-16
87	0xae	-82
88	0xf0	-16
89	0x55	85
90	0x7f	127
91	0x97	-105
92	0x09	9
93	0xbb	-69
94	0xbe	-66
95	0xaf	-81
96	0xdb	-37
97	0x0c	12
98	0xe3	-29
99	0xfb	-5
100	0x17	23
101	0x46	70
102	0x37	55
103	0xf5	-11
104	0xcd	-51
105	0x50	80
106	0x38	56
107	0xcb	-53
108	0x3b	59
109	0x1e	30
110	0xee	-18
111	0xe1	-31
112	0xb5	-75
113	0x35	53
114	0xfa	-6
115	0x84	-124
116	0x7f	127
117	0xc3	-61
118	0x7c	124
119	0xdb	-37
120	0xcd	-51
121	0xeb	-21
122	0xd4	-44
123	0x83	-125
124	0x3a	58
125	0x41	65
126	0x29	41
127	0xe1	-31
128	0xd9	-39
129	0xe8	-24
130	0xe2	-30
131	0xd1	-47
132	0xf3	-13
133	0xec	-20
134	0xf3	-13
135	0xdf	-33
136	0xf9	-7
137	0x11	17
138	0xf5	-11
139	0xaa	-86
140	0xe0	-32
141	0x2a	42
142	0x00	0
143	0xd6	-42
144	0xe9	-23
145	0xe4	-28
146	0xf5	-11
147	0xca	-54
148	0x12	18
149	0x1a	26
150	0x01	1
151	0xde	-34
152	0xef	-17
153	0xe8	-24
154	0x7f	127
155	0xf1	-15
156	0x27	39
157	0x62	98
158	0x32	50
159	0x0f	15
160	0x1b	27
161	0x36	54
162	0xad	-83
163	0xe9	-23
164	0x01	1
165	0xc7	-57
166	0xd5	-43
167	0x43	67
168	0x3a	58
169	0x38	56
170	0x8c	-116
171	0x24	36
172	0x27	39
173	0x09	9
174	0xfa	-6
175	0x7f	127
176	0x53	83
177	0x22	34
178	0x84	-124
179	0x26	38
180	0xe5	-27
181	0xfb	-5
182	0xee	-18
183	0xba	-70
184	0xe5	-27
185	0x04	4
186	0x9b	-101
187	0x6e	110
188	0xee	-18
189	0x0a	10
190	0x44	68
191	0x0d	13
192	0x68	104
193	0x09	9
194	0xd8	-40
195	0x7f	127
196	0xf1	-15
197	0x38	56
198	0x06	6
199	0x53	83
200	0xfb	-5
201	0x61	97
202	0xf1	-15
203	0x48	72
204	0xd1	-47
205	0x4c	76
206	0x61	97
207	0xda	-38
208	0xed	-19
209	0xff	-1
210	0xf4	-12
211	0xe1	-31
212	0xe9	-23
213	0x31	49
214	0x37	55
215	0xca	-54
216	0xa5	-91
217	0x1f	31
218	0x31	49
219	0x91	-111
220	0xf3	-13
221	0x55	85
222	0xe4	-28
223	0xaa	-86
224	0x13	19
225	0x1b	27
226	0xd6	-42
227	0x7f	127
228	0xe5	-27
229	0xf4	-12
230	0x33	51
231	0x66	102
232	0x12	18
233	0xff	-1
234	0xd2	-46
235	0x0c	12
236	0xf3	-13
237	0x02	2
238	0x0e	14
239	0x1f	31
240	0xff	-1
241	0xea	-22
242	0xd0	-48
243	0x70	112
244	0xff	-1
245	0x2a	42
246	0x21	33
247	0xe0	-32
248	0xf7	-9
249	0xd0	-48
250	0xcb	-53
251	0xcc	-52
252	0xf5	-11
253	0x07	7
254	0x0b	11
255	0x25	37

sequential_3/conv2d_10/Conv2D i1 [32, 4, 1, 16]
0	0x08	8
1	0xfd	-3
2	0xd5	-43
3	0xe4	-28
4	0xed	-19
5	0x4a	74
6	0x29	41
7	0x1b	27
8	0xff	-1
9	0x37	55
10	0x7f	127
11	0xf9	-7
12	0x11	17
13	0x1c	28
14	0x2a	42
15	0xf6	-10
16	0x08	8
17	0xb9	-71
18	0xbd	-67
19	0x33	51
20	0xff	-1
21	0x0f	15
22	0x38	56
23	0x3e	62
24	0xcc	-52
25	0x17	23
26	0x2c	44
27	0x23	35
28	0x4c	76
29	0x98	-104
30	0x0d	13
31	0x12	18
32	0x12	18
33	0xb8	-72
34	0xb1	-79
35	0x2b	43
36	0x1c	28
37	0x22	34
38	0x01	1
39	0x21	33
40	0xcf	-49
41	0xd2	-46
42	0x0b	11
43	0x15	21
44	0x3d	61
45	0xd1	-47
46	0xfc	-4
47	0x23	35
48	0xf6	-10
49	0xdf	-33
50	0xb8	-72
51	0x09	9
52	0x28	40
53	0x07	7
54	0xf9	-7
55	0x3b	59
56	0xe8	-24
57	0xc5	-59
58	0xe7	-25
59	0x09	9
60	0x22	34
61	0xef	-17
62	0x2b	43
63	0x06	6
64	0x0e	14
65	0x32	50
66	0xc4	-60
67	0x37	55
68	0x3c	60
69	0xcd	-51
70	0x10	16
71	0x0a	10
72	0xc4	-60
73	0x06	6
74	0xce	-50
75	0x7f	127
76	0x6e	110
77	0xf4	-12
78	0x17	23
79	0x12	18
80	0xfc	-4
81	0x0c	12
82	0xcb	-53
83	0xea	-22
84	0x09	9
85	0x16	22
86	0xce	-50
87	0x24	36
88	0x25	37
89	0x0e	14
90	0x3e	62
91	0xf9	-7
92	0x0e	14
93	0x18	24
94	0x62	98
95	0x45	69
96	0x16	22
97	0xdf	-33
98	0xca	-54
99	0xfa	-6
100	0x14	20
101	0x32	50
102	0x14	20
103	0x2e	46
104	0x4c	76
105	0x0e	14
106	0x57	87
107	0xcd	-51
108	0xf4	-12
109	0x39	57
110	0x35	53
111	0x4a	74
112	0xee	-18
113	0xb2	-78
114	0xe0	-32
115	0x14	20
116	0x02	2
117	0x77	119
118	0x65	101
119	0x6d	109
120	0x3e	62
121	0x08	8
122	0x52	82
123	0xbe	-66
124	0x07	7
125	0x0f	15
126	0x3f	63
127	0x5a	90
128	0xf2	-14
129	0xff	-1
130	0x0d	13
131	0x29	41
132	0xd8	-40
133	0x3a	58
134	0x09	9
135	0x2e	46
136	0x09	9
137	0x81	-127
138	0xdd	-35
139	0xe8	-24
140	0x2a	42
141	0xc4	-60
142	0xeb	-21
143	0xca	-54
144	0x0a	10
145	0xf8	-8
146	0x23	35
147	0x24	36
148	0x07	7
149	0xd1	-47
150	0xe3	-29
151	0xfb	-5
152	0xe4	-28
153	0x8a	-118
154	0xba	-70
155	0xee	-18
156	0xf7	-9
157	0xce	-50
158	0xd0	-48
159	0xcb	-53
160	0x03	3
161	0x08	8
162	0x17	23
163	0x36	54
164	0x1e	30
165	0xcf	-49
166	0x03	3
167	0x08	8
168	0x0b	11
169	0xc3	-61
170	0xde	-34
171	0x36	54
172	0x2d	45
173	0xe3	-29
174	0xdb	-37
175	0xca	-54
176	0x20	32
177	0x17	23
178	0x11	17
179	0x2c	44
180	0x19	25
181	0xe4	-28
182	0x0a	10
183	0xe1	-31
184	0xec	-20
185	0xcb	-53
186	0x29	41
187	0x15	21
188	0x04	4
189	0xdf	-33
190	0xac	-84
191	0xc2	-62
192	0x29	41
193	0x27	39
194	0x06	6
195	0x26	38
196	0x07	7
197	0xae	-82
198	0x13	19
199	0xcf	-49
200	0x06	6
201	0x00	0
202	0xdc	-36
203	0x19	25
204	0x1e	30
205	0xee	-18
206	0xdd	-35
207	0xb9	-71
208	0x35	53
209	0x17	23
210	0x0a	10
211	0x23	35
212	0xfe	-2
213	0xcb	-53
214	0x0e	14
215	0xbf	-65
216	0x0b	11
217	0x0a	10
218	0xe0	-32
219	0x05	5
220	0xfa	-6
221	0xf2	-14
222	0xc7	-57
223	0xbb	-69
224	0x35	53
225	0x12	18
226	0x1f	31
227	0xfc	-4
228	0xec	-20
229	0x17	23
230	0x19	25
231	0xd2	-46
232	0x2c	44
233	0x1e	30
234	0x7f	127
235	0xfa	-6
236	0xe6	-26
237	0xf6	-10
238	0xd2	-46
239	0x10	16
240	0xfd	-3
241	0xf6	-10
242	0x29	41
243	0x02	2
244	0xeb	-21
245	0x20	32
246	0xe2	-30
247	0xde	-34
248	0x1f	31
249	0xf7	-9
250	0x09	9
251	0xef	-17
252	0xeb	-21
253	0xf3	-13
254	0xf2	-14
255	0x16	22

sequential_3/dense_6/MatMul i1 [16, 32] scale=0.010120182 zero_point=0
0	0xfa	-0.060721092
1	0xdf	-0.33396602
2	0xe2	-0.30360547
3	0xfd	-0.030360546
4	0xe2	-0.30360547
5	0x0f	0.15180273
6	0x03	0.030360546
7	0xd7	-0.41492748
8	0xdd	-0.35420638
9	0xe4	-0.2833651
10	0x18	0.24288437
11	0xdb	-0.37444675
12	0x06	0.060721092
13	0xfb	-0.050600912
14	0x17	0.2327642
15	0x02	0.020240365
16	0xef	-0.1720431
17	0x1c	0.2833651
18	0xed	-0.19228347
19	0x11	0.1720431
20	0xf2	-0.14168255
21	0xe6	-0.26312473
22	0xe8	-0.24288437
23	0xe9	-0.2327642
24	0xdc	-0.36432657
25	0xff	-0.010120182
26	0xe7	-0.25300455
27	0xdf	-0.33396602
28	0xde	-0.3440862
29	0x06	0.060721092
30	0xf6	-0.101201825
31	0xf1	-0.15180273
32	0x07	0.070841275
33	0xe2	-0.30360547
34	0x30	0.48576874
35	0xcf	-0.49588892
36	0xfb	-0.050600912
37	0xf6	-0.101201825
38	0xc0	-0.64769167
39	0xd7	-0.41492748
40	0xf0	-0.16192292
41	0xc5	-0.5970908
42	0xa1	-0.9614173
43	0xc6	-0.58697057
44	0x2c	0.44528803
45	0xe2	-0.30360547
46	0xbf	-0.6578118
47	0xc1	-0.6375715
48	0xd7	-0.41492748
49	0xc6	-0.58697057
50	0xc4	-0.60721093
51	0xe4	-0.2833651
52	0xf0	-0.16192292
53	0x3d	0.61733115
54	0xf8	-0.08096146
55	0x3e	0.6274513
56	0xe3	-0.29348528
57	0x1b	0.27324492
58	0x06	0.060721092
59	0xdf	-0.33396602
60	0x01	0.010120182
61	0x10	0.16192292
62	0x13	0.19228347
63	0x94	-1.0929797
64	0x08	0.08096146
65	0x0f	0.15180273
66	0x0d	0.13156237
67	0x09	0.09108164
68	0x15	0.21252383
69	0xe7	-0.25300455
70	0xea	-0.22264402
71	0x1c	0.2833651
72	0xdd	-0.35420638
73	0x07	0.070841275
74	0x08	0.08096146
75	0x97	-1.0626191
76	0xb6	-0.7488935
77	0x9c	-1.0120182
78	0x28	0.4048073
79	0x23	0.35420638
80	0x23	0.35420638
81	0x1b	0.27324492
82	0x0b	0.11132201
83	0xbf	-0.6578118
84	0x1d	0.29348528
85	0xce	-0.5060091
86	0x11	0.1720431
87	0x00	0.0
88	0xb9	-0.7185329
89	0x94	-1.0929797
90	0x0c	0.121442184
91	0x0c	0.121442184
92	0xec	-0.20240365
93	0xfd	-0.030360546
94	0x2c	0.44528803
95	0xfd	-0.030360546
96	0xcc	-0.52624947
97	0xb9	-0.7185329
98	0x2f	0.47564858
99	0x12	0.18216328
100	0x0d	0.13156237
101	0x18	0.24288437
102	0xbd	-0.6780522
103	0x11	0.1720431
104	0x09	0.09108164
105	0xd6	-0.42504767
106	0x99	-1.0423788
107	0x16	0.22264402
108	0x1a	0.26312473
109	0xef	-0.1720431
110	0x1a	0.26312473
111	0x09	0.09108164
112	0x0e	0.14168255
113	0xd6	-0.42504767
114	0xad	-0.8399751
115	0xe3	-0.29348528
116	0x12	0.18216328
117	0x3d	0.61733115
118	0x11	0.1720431
119	0x1a	0.26312473
120	0xe9	-0.2327642
121	0x01	0.010120182
122	0xb7	-0.7387733
123	0xc6	-0.58697057
124	0x05	0.050600912
125	0xa0	-0.9715375
126	0x0f	0.15180273
127	0x96	-1.0727394
128	0x04	0.04048073
129	0xfa	-0.060721092
130	0x29	0.41492748
131	0x1d	0.29348528
132	0x40	0.64769167
133	0x11	0.1720431
134	0xad	-0.8399751
135	0x0a	0.101201825
136	0x08	0.08096146
137	0xbb	-0.69829255
138	0x07	0.070841275
139	0xa9	-0.88045585
140	0xec	-0.20240365
141	0xa7	-0.9006962
142	0x1e	0.30360547
143	0x37	0.55661005
144	0x02	0.020240365
145	0x22	0.3440862
146	0x06	0.060721092
147	0xb7	-0.7387733
148	0x20	0.32384583
149	0x08	0.08096146
150	0x0d	0.13156237
151	0x16	0.22264402
152	0xc3	-0.61733115
153	0xde	-0.3440862
154	0x09	0.09108164
155	0xfa	-0.060721092
156	0xc3	-0.61733115
157	0x18	0.24288437
158	0x13	0.19228347
159	0x0f	0.15180273
160	0x15	0.21252383
161	0x0a	0.101201825
162	0x18	0.24288437
163	0x55	0.8602155
164	0x1e	0.30360547
165	0xef	-0.1720431
166	0xf9	-0.070841275
167	0xfe	-0.020240365
168	0xd2	-0.4655284
169	0x01	0.010120182
170	0x09	0.09108164
171	0x15	0.21252383
172	0x0b	0.11132201
173	0xfd	-0.030360546
174	0x44	0.6881724
175	0xee	-0.18216328
176	0xeb	-0.21252383
177	0xcd	-0.5161293
178	0xee	-0.18216328
179	0xeb	-0.21252383
180	0x40	0.64769167
181	0xe9	-0.2327642
182	0x00	0.0
183	0xe3	-0.29348528
184	0xde	-0.3440862
185	0x17	0.2327642
186	0x0e	0.14168255
187	0x02	0.020240365
188	0x17	0.2327642
189	0x13	0.19228347
190	0xda	-0.38456693
191	0xfe	-0.020240365
192	0xfa	-0.060721092
193	0x0a	0.101201825
194	0xd8	-0.4048073
195	0xbf	-0.6578118
196	0xcc	-0.52624947
197	0x49	0.7387733
198	0x09	0.09108164
199	0x5e	0.95129716
200	0x1f	0.31372565
201	0x0b	0.11132201
202	0x09	0.09108164
203	0xec	-0.20240365
204	0xf6	-0.101201825
205	0x00	0.0
206	0xdd	-0.35420638
207	0x04	0.04048073
208	0x3a	0.58697057
209	0x2d	0.45540822
210	0x1e	0.30360547
211	0xfc	-0.04048073
212	0xd7	-0.41492748
213	0xe7	-0.25300455
214	0x46	0.70841277
215	0x13	0.19228347
216	0x12	0.18216328
217	0xe8	-0.24288437
218	0xfe	-0.020240365
219	0x13	0.19228347
220	0x98	-1.0524989
221	0x0b	0.11132201
222	0x2e	0.4655284
223	0x0a	0.101201825
224	0x11	0.1720431
225	0xf8	-0.08096146
226	0xf4	-0.121442184
227	0xea	-0.22264402
228	0x0e	0.14168255
229	0xf4	-0.121442184
230	0x12	0.18216328
231	0xec	-0.20240365
232	0x06	0.060721092
233	0xf2	-0.14168255
234	0xe4	-0.2833651
235	0xfa	-0.060721092
236	0x07	0.070841275
237	0xfe	-0.020240365
238	0x14	0.20240365
239	0xef	-0.1720431
240	0x17	0.2327642
241	0x05	0.050600912
242	0xdd	-0.35420638
243	0x13	0.19228347
244	0xd9	-0.39468712
245	0xfa	-0.060721092
246	0xd2	-0.4655284
247	0xea	-0.22264402
248	0xe2	-0.30360547
249	0xed	-0.19228347
250	0xd9	-0.39468712
251	0x02	0.020240365
252	0xec	-0.20240365
253	0xf2	-0.14168255
254	0xfa	-0.060721092
255	0xf0	-0.16192292

sequential_3/dense_7/MatMul i1 [4, 16] scale=0.012472712 zero_point=0
0	0x07	0.08730899
1	0xb5	-0.9354534
2	0xa7	-1.1100714
3	0xb8	-0.8980353
4	0x9b	-1.2597439
5	0xbc	-0.8481445
6	0x25	0.46149036
7	0x21	0.41159952
8	0xd8	-0.4989085
9	0x3d	0.76083547
10	0xaa	-1.0726533
11	0x47	0.8855626
12	0xa8	-1.0975987
13	0xf9	-0.08730899
14	0xd2	-0.5737448
15	0x81	-1.5840344
16	0xd8	-0.4989085
17	0xc8	-0.6984719
18	0xc6	-0.72341734
19	0xd4	-0.54879934
20	0xee	-0.22450882
21	0x40	0.7982536
22	0x8b	-1.4593073
23	0x05	0.06236356
24	0xdd	-0.43654492
25	0xaf	-1.0102897
26	0xb3	-0.96039885
27	0xd1	-0.58621746
28	0xc0	-0.7982536
29	0x38	0.6984719
30	0xb6	-0.9229807
31	0x39	0.7109446
32	0xe8	-0.2993451
33	0xb4	-0.94792616
34	0x50	0.997817
35	0xb5	-0.9354534
36	0x48	0.8980353
37	0x10	0.1995634
38	0x1c	0.34923595
39	0xe3	-0.36170867
40	0xad	-1.0352352
41	0xf4	-0.14967255
42	0xae	-1.0227624
43	0x9b	-1.2597439
44	0xd2	-0.5737448
45	0xa1	-1.1849077
46	0xae	-1.0227624
47	0xbb	-0.86061716
48	0xf0	-0.1995634
49	0x56	1.0726533
50	0xfc	-0.04989085
51	0x45	0.86061716
52	0xfd	-0.03741814
53	0xcd	-0.63610834
54	0x08	0.0997817
55	0xdc	-0.44901764
56	0x6e	1.3719983
57	0xd5	-0.53632665
58	0x4d	0.96039885
59	0xfb	-0.06236356
60	0x69	1.3096348
61	0x24	0.44901764
62	0x69	1.3096348
63	0x0d	0.16214526
